notebooks-lm/dq_model.pth (torch, 24082 bytes, 6 tensors)

fc1.weight f4 [64, 9]
00000000: a07a 913e 90ca 2c3d c9f7 14bd e98f 97be
00000010: 858e dbbb 1ef4 3abe 6cc0 e53c efb7 76bc
00000020: 838e 90be 7a57 b6be 50f1 9abe 362e 703e
00000030: 9448 593e 9966 023e 0281 85be d9cf d03d
00000040: f007 5b3d 7a6d 21be 35d7 a8bd 64dd 643e
00000050: 7865 3fbe 1020 9d3d 2bfe fe3d 0973 36be
00000060: 6180 02bd 5a44 34be 97c7 453e 3f09 b63e
00000070: 3a2b 7cbe beb6 98bd 6c23 533e 4668 0f3e
00000080: 22bc f13d aa9c a43e 4b70 e7bd c916 7f3e
00000090: f129 7d3d 9299 bc3d e0e6 7dbe a21f 9f3e
000000a0: c038 803e 39b6 0abe 389c 853e 7ddf 473e
000000b0: 881e 97be 6626 603e ce62 6dbd ae5a b1be
000000c0: 7186 1abe f9a6 65be 9072 89be 06a9 a7be
000000d0: 429c b23e e535 cd3c 7f9f 043c 493e 973c
000000e0: 1daa 543e 60b2 e73b a76f 073e 2f36 85be
000000f0: 794f 96bd e0e0 933d 3d8d bfbe 6a8f 3cbd
00000100: f156 39be ae96 a33e c99b 9bbe e24e 89be
00000110: 396f 963d 8ae4 9ebe 5bb5 f53e 92d0 6ebe
00000120: 2b9a 5abd 45ba a53e df15 8bbe 9ee0 3bbe
00000130: c321 6fbc 4456 673c b4e0 593e cd61 84be
00000140: 8bcb 7bbe a99b 573e 1e1e 673e 24cd 2e3e
00000150: 9d1e 2fbb b981 ef3d c744 3b3d 738e 913d
00000160: 20ca 633a 4303 2fbe 2c89 95be 1c95 48be
00000170: 2fb5 143e 6f07 a2be 0d5e 873d 92fa 85bd
00000180: 1541 2b3e 2450 6ebe dd98 4e3e d8a4 513d
00000190: f115 10bd c6b5 86be 616d 37bd 8bd6 79bd
000001a0: 6f11 a83e 304e 2bbe 37eb 91be c4d1 3cbd
000001b0: baf0 22be 5cc3 aebd d56b 89bd 05f6 6ebd
000001c0: bc66 863d 6dcb 823e 29a6 0ebe ef1f 79be
000001d0: d19b cb3c eee5 7f3e 2fcb 673e d4eb 7fbe
000001e0: ff45 0a3e 8abd 813e 518e 1abe 1d87 9cbb
000001f0: 1bd7 263e 3c66 883d fd07 e03d e3f6 59be
00000200: e534 4cbd 7bf4 94be 1be6 8e3e 3377 a83d
00000210: d536 093d d848 433e d622 dfbd 6a25 b03e
00000220: 13b2 113d ee38 08be d3cf f43c 280a 47bd
00000230: 2ff3 65be c357 143e e9b0 d23d a0b3 2dbe
00000240: 2291 bebe 5ce2 993d 434c 9cbe 00fa 1e3e
00000250: 9a41 a3bd abf5 8e3e 20b5 d1bd 6681 fc3d
00000260: 0b8f 523d 3fd5 f93d d792 5bbe 002f 513e
00000270: d01a 1bbe efc4 99be 9183 cd3e e1c3 a43e
00000280: f8e7 fe3d f02c 06bf b6ca 7d3e 7ba2 a7be
00000290: a330 febd 248a 18be f88b 81be 1b6f 0c3e
000002a0: fb7e 343e e416 3a3b 5565 2d3e d4ed 53be
000002b0: 5182 a53e 6f8b 31bd 056f 653e 3c07 82be
000002c0: f741 8dbe 6417 bc3e 3074 a7be 48b8 cd3d
000002d0: 0db0 2cbe b9ed 80be 2ffe 913e 54ee b2be
000002e0: f7a4 313e c8d4 293b 628f c9be ed7e d43d
000002f0: e327 51be 68ee f8bd 0e24 c4bd fa76 193e
00000300: b467 8e3e 7c40 a43c 9a63 483e 4b18 9abd
00000310: 9f41 37be dbfe e53d a0e7 bf3e 66a8 403d
00000320: d3df d2bd a6da 89be c1e4 c73d f092 143b
00000330: 0456 15be 8de9 7e3e 3a0d 9e3e 5bab 0b3e
00000340: adc6 543e 5f0a b4bd b34c 08be 6443 57be
00000350: 219e fe3d 66ec 7b3e 5121 c6bc 3f57 6ebe
00000360: b2cc 66bd 6ca5 833d 8c9f 6fbe 0cb6 4ebe
00000370: b8b2 80be 71c2 e6bd 3d66 473e b47f 03be
00000380: 6707 983e 6d53 1e3c d403 253e 91b8 84be
00000390: 4ea7 8bbe 86a7 5ebd 70a1 7d3e d8c0 0bbe
000003a0: 9b47 84be c8f6 9f3e 662d 97be 1c8a 8e3d
000003b0: 7d37 f73d a7a1 d1bd 1bf8 85be 0e5d 793e
000003c0: 650e 8bbe a106 273e c1be 963c 0c17 db3d
000003d0: a033 70bd 1808 e4bd 9837 4c3e a658 97bd
000003e0: 0f07 44bd 4f9b e5bc 94ee a53e 893e 313e
000003f0: 2ec7 0e3e b033 933e f334 ae3d 887b 37be
0.28413868 0.042185366 -0.03636912 -0.29601982 -0.0067003393 -0.18257186 0.028045855 -0.015058502
-0.28233728 -0.35613614 -0.30262232 0.23455128 0.21219093 0.1273445 -0.26074988 0.10195894
0.053474367 -0.15764418 -0.082441725 0.22350079 -0.18691051 0.07672131 0.124508224 -0.1781732
-0.031860713 -0.17604199 0.19314419 0.3555393 -0.24625865 -0.0745673 0.20618981 0.14004621
0.118034616 0.32150775 -0.11300715 0.24911036 0.061807577 0.09208979 -0.24795103 0.3107882
0.25043297 -0.13546075 0.26095748 0.19518848 -0.2951548 0.21889648 -0.057955556 -0.34639496
-0.15090348 -0.22426976 -0.26845217 -0.32746142 0.3488484 0.025050113 0.008094667 0.018462317
0.20768018 0.0070708245 0.13226186 -0.260179 -0.07339377 0.07220626 -0.37412444 -0.046035208
-0.18099572 0.31950897 -0.30392292 -0.26817995 0.07345433 -0.31033736 0.47989926 -0.23321751
-0.053369682 0.32368675 -0.27165124 -0.18347403 -0.014595452 0.014119688 0.21277124 -0.25855866
-0.24589364 0.21055473 0.22570083 0.17070442 -0.0026721128 0.116946645 0.045719888 0.07107248
0.0008689482 -0.17091088 -0.29206216 -0.1958813 0.14522241 -0.31646296 0.06609736 -0.06541933
0.16724046 -0.23272759 0.201755 0.051182598 -0.035177175 -0.26310557 -0.044782046 -0.06099562
0.328258 -0.16729045 -0.28499767 -0.046098486 -0.15912142 -0.085333556 -0.067100205 -0.05834009
0.06562564 0.25545827 -0.13930573 -0.24328588 0.024854572 0.24990055 0.22636102 -0.24992305
0.13503264 0.2533992 -0.15093352 -0.004776849 0.16292994 0.06660125 0.10939024 -0.21285586
-0.04985513 -0.29092774 0.27909932 0.082258604 0.033499558 0.19070756 -0.10895316 0.34403545
0.035570215 -0.13302967 0.029884255 -0.04859367 -0.22456048 0.14486603 0.10287649 -0.16963053
-0.37220103 0.07513878 -0.30526933 0.15525055 -0.07971497 0.27921805 -0.10239625 0.12329368
0.051405948 0.121988766 -0.21442734 0.20428085 -0.15146947 -0.3003306 0.4013944 0.32180694
0.12446588 -0.5241232 0.2478436 -0.3274115 -0.124116205 -0.14896446 -0.253021 0.13714258
0.17626564 0.0028394992 0.16933186 -0.20696193 0.32325986 -0.043345865 0.22405632 -0.25396144
-0.2758939 0.36736596 -0.32705832 0.100449145 -0.16864033 -0.25181368 0.2851424 -0.34947455
0.17348085 0.002591418 -0.39367205 0.10375772 -0.20425372 -0.121548474 -0.095771894 0.14986792
0.27813494 0.02005028 0.19569245 -0.07524165 -0.17896126 0.112302504 0.37481403 0.047035597
-0.10296597 -0.26924628 0.09760428 0.002267059 -0.14583594 0.2489378 0.30869466 0.13639586
0.20778914 -0.08791041 -0.13310508 -0.21021801 0.124325044 0.24601898 -0.024185808 -0.23275469
-0.056347556 0.06428036 -0.23400706 -0.20186633 -0.25136352 -0.112675555 0.19472595 -0.12841684
0.29693148 0.009663445 0.16114742 -0.25922063 -0.2727608 -0.05435898 0.24768615 -0.13647783
-0.2583588 0.31242967 -0.29526824 0.06959936 0.120711304 -0.10235911 -0.26165852 0.24351904
-0.2715942 0.16311122 0.018401505 0.10697755 -0.058642983 -0.11134356 0.19943082 -0.07389955
-0.047858294 -0.028028158 0.32408583 0.17309012 0.13943169 0.28750372 0.08506193 -0.17918217

fc1.bias f4 [64]
00000000: 7bd6 8c3e 6388 fa3c a6d4 95be 247f b03e
00000010: 6b10 25be aa79 573e 82b3 963e ba7b 993e
00000020: a5ff debc b2e0 8d3e 535d 363d 0e5b 35bc
00000030: 98ca 863b 8f20 743e c61d d2bd 938d eabb
00000040: 475a 8b3e 238c a63d 17be 8b3d b5e1 3fbe
00000050: 8fd2 6abe 33aa 733e 7d60 a2be 44ba 123e
00000060: 759e 1ebe a165 473e ce0b 9dbe 217d 773e
00000070: 0efa 16bc 661a 45be 0139 403d 600e 323e
00000080: a402 4abe 5c77 7cbe 7187 3fbd c952 a8bd
00000090: 2385 b93d 045b 8a3e e458 aebd 048e 583d
000000a0: d6a5 a93d 28f8 d03d 74e6 493e 882c 4f3e
000000b0: f4bf 7e3e 13b8 7d3e 639c a03d ceb7 8f3e
000000c0: f35d ef3d 599d 9c3e 0017 5a3e dcee 643e
000000d0: ed4e 09be 7bbf 223d e9c9 8e3e 45ee 60be
000000e0: 53e2 803d 5c3a 9d3e d748 943e 2ef2 343e
000000f0: 9569 b5bd 6fa5 98be ee57 973b f378 16be
0.27507386 0.030582612 -0.292638 0.34472 -0.16119544 0.21042505 0.2943383 0.29977208
-0.02722151 0.2771049 0.044522595 -0.011069072 0.0041135065 0.23840545 -0.10259585 -0.0071579902
0.27217314 0.08132198 0.06823366 -0.18738444 -0.22931884 0.23795395 -0.3171424 0.14328867
-0.15490134 0.19472362 -0.3067307 0.24168827 -0.009214891 -0.19248351 0.046929363 0.17388296
-0.1972757 -0.24654907 -0.046760026 -0.08218915 0.09058597 0.27022564 -0.08513048 0.05286981
0.08283584 0.10203582 0.19716817 0.20231831 0.24877912 0.2477725 0.078423284 0.2806992
0.11687841 0.30588797 0.21297836 0.22356743 -0.13409014 0.03973339 0.2788842 -0.21965893
0.06293168 0.30708587 0.28961822 0.17670509 -0.08858029 -0.29813716 0.0046186363 -0.14694576

fc2.weight f4 [64, 64]
00000000: f52b 24be 64f8 853d 24fc b13c 04e0 dd3c
00000010: bdeb 333d d7bd 0fbe 7636 dbbd ff63 23be
00000020: bfe2 25bd 2fd9 21be 1ce0 dc3d 2320 0bbd
00000030: de28 1abe 2aa7 a5bc c84e 823c edbb 39be
00000040: 0753 6cbd c7a7 07bd f994 04bd efda b8bd
00000050: d9af 713c 7d2e 163c acef fabd 153d bfbd
00000060: 9c74 923d c6a4 c13d 5129 87be f053 45be
00000070: adaa af3d 8127 78bc 9927 cabb c1d4 7ebd
00000080: 8338 493e c262 753d 2a18 913d de57 f73d
00000090: 0a43 913d 1e48 743c 9da6 1e3e 8a1d d0bb
000000a0: c90f 033e 55e2 f1bc 9335 84bd e75b 81bd
000000b0: fcae d73d 6035 523c ea97 15be f25d eb3d
000000c0: 5ae3 843e be49 b2bc 81e5 803d 9c67 70bd
000000d0: 86db 433d 2d7d e0bd c058 fbbd c9eb d33c
000000e0: aea1 27bd cafb dd3d faef 0abd 7e7b 5a3c
000000f0: 8cdf 49ba 3396 f4bd b06d 4fbe 72d4 81bc
00000100: b3ab c4bd 5d76 ed3c 17cb e7bd 0cd4 c13d
00000110: cf28 643d ff03 e33c 92d0 86bd 98bf 9a3d
00000120: 84cb e63d 9e9c d0bd 4389 a13d d5ea 543b
00000130: ce32 f6bc eaa1 d23d 7a95 453c 7174 bb3d
00000140: 807e 0cbe ff88 31be 0b67 cbbd bc46 813d
00000150: 3242 80bd ba6c 0dbc 396e 7abd 4f48 0d3d
00000160: 2492 c6bc 0898 c7bd cbc6 eebd 421d 14bc
00000170: 904d 87bd 6e7b a03d d930 223d 0458 19be
00000180: cdf8 cdbc 4c64 07be a00f 7e3d 9cad 2cbe
00000190: e64a 6ebd fdf1 50bd 0d38 03be e669 373d
000001a0: e78d c4bc 3ed0 e03d 5550 073e 3e0e e23d
000001b0: 9234 e1bc 3ef7 ccbd fbb4 203d 35bf 163d
000001c0: fdb3 a5bc bb6e 8fbd 1cea eebd a041 1abd
000001d0: 935d aa3d ecd8 42bd e2cc be3d a2d5 99bd
000001e0: 2cb9 a13d d914 403c a3ef 9b3d f7a5 55bc
000001f0: 9fff 53bd 3470 273e 4b86 b63d 7cc5 9abc
00000200: 7d88 de3c 6cc2 043d c0a7 2abe 7aa1 6abd
00000210: cd38 f03d aaff 2b3d d7a8 da3d 7a65 833c
00000220: a82a ef3d 3f73 253e 5710 0bbc 6a69 203e
00000230: f425 a73d 47ea 003e 5080 273d e6d5 3a3d
00000240: d21d 3ebd 009f 1d3d dbbb 7fbd 242a c9bc
00000250: ca8c b4bd 3da0 d73d 089a d2bd b9d9 213d
00000260: 7eb4 acbd 4614 86bb f0f5 13bc e33b e3bc
00000270: 89a5 1e3e 14b4 1f3d 8d8e f8bd 9d30 913c
00000280: d920 c03c 7be6 753d 3c71 973d e0e2 843c
00000290: 3349 a1bd 4eb3 0f3e c803 94bc 7f53 3a3c
000002a0: a530 ec3d bdf2 aebc 3404 4ebc 0158 0e3e
000002b0: 73da 7c3d 0c4f 113a 3a8a c13b 7a6c 9abd
000002c0: 15d9 8dbd 910e fa3d 845d 113e 57ce 383d
000002d0: 1354 27be eae2 cc3d 4c5e cc3d 9a34 04be
000002e0: fbdd 353d e7de 023e 5db2 573c 5184 bc3b
000002f0: 71ee af3d 2592 8fbc 5e7d 7e3b 366c d1bc
00000300: 5647 fe3c f716 d4bd b7cc 0abe c78a 1dbd
00000310: 1fa1 9abc d3b8 31bc 8d0f 223d 67c8 af3d
00000320: 9ab8 03be 46bb 17bd d01a 89bd 1031 c13d
00000330: dcfe 39bb 1e0a 89bd 8699 3b3e ab14 283d
00000340: a809 98bd 793a dcbc f624 1ebc d719 03be
00000350: 6703 003e 03ea 95bd 9744 4ebc baf2 f5bd
00000360: 5065 a73d b98a b2bd bc13 58bc db73 173e
00000370: 4c20 2abd f6b4 96bc ffc6 99bd 2a7e a43d
00000380: e7ac 86bd 027b f9bd 495b 873d abe0 1fbe
00000390: 1fb8 083e 4d7a 033d 0628 9fbd 3544 b5bd
000003a0: 6754 c93c ad52 ce3d bb05 e13d 53d2 b2bd
000003b0: 44fe 24be f85e ac3d b442 213e f9e0 f93d
000003c0: 8792 31be 88b6 553e d9e4 673c c183 a73d
000003d0: 2554 e7bd 11c7 423e d47d 233e 6f29 f6bd
000003e0: 193e 32bd 9c43 29bd c1f0 0f3d 6900 6d3d
000003f0: 5a05 543d 72a8 a63d 9990 173e 846d b33d
-0.16032393 0.065415174 0.021726675 0.027084358 0.04392599 -0.14037262 -0.10703747 -0.15956114
-0.040499445 -0.15805505 0.10784933 -0.033966195 -0.15054652 -0.020221312 0.015906706 -0.18138094
-0.05769637 -0.03311899 -0.032368634 -0.09026133 0.014751398 0.009166357 -0.12252745 -0.09337822
0.07151148 0.09455256 -0.2639871 -0.19270301 0.08577476 -0.015146137 -0.006169271 -0.062214617
0.19650464 0.059908636 0.07084687 0.12077306 0.07092865 0.014909772 0.15493245 -0.0063511776
0.1279899 -0.029526869 -0.06455531 -0.06316357 0.105314225 0.012830108 -0.14608732 0.11492528
0.25954705 -0.021763679 0.062937744 -0.05869256 0.047816776 -0.109613754 -0.12272787 0.025869267
-0.040925674 0.108390406 -0.033920266 0.013335107 -0.00077008526 -0.11942711 -0.20256686 -0.015848372
-0.096030615 0.028987104 -0.11318033 0.09464273 0.05570298 0.027711866 -0.065827504 0.07556075
0.11269286 -0.10186122 0.07887509 0.0032488604 -0.030053522 0.10284789 0.012059564 0.09153069
-0.13720131 -0.17337416 -0.09931763 0.0631232 -0.06262626 -0.008631879 -0.061140273 0.034492787
-0.024239607 -0.097457945 -0.116590105 -0.009040179 -0.06606591 0.07836042 0.039597366 -0.14974982
-0.025143052 -0.13221854 0.06202662 -0.16863102 -0.058176897 -0.051012028 -0.1281435 0.044778727
-0.023993446 0.10977219 0.13214238 0.11037873 -0.027490888 -0.10008095 0.039235096 0.036803443
-0.020227427 -0.07003542 -0.116657466 -0.03766024 0.08318629 -0.047570154 0.09316422 -0.0751145
0.07896647 0.0117237205 0.076140665 -0.013040057 -0.05175745 0.16351396 0.08912333 -0.018892996
0.027164692 0.032411978 -0.16665554 -0.057282902 0.11729584 0.041991867 0.10676735 0.016039599
0.11678058 0.16157244 -0.008487782 0.15665212 0.08161536 0.1258937 0.040893853 0.045614146
-0.046415158 0.038481712 -0.062435012 -0.024556227 -0.08815916 0.1052861 -0.102832854 0.039514277
-0.08432864 -0.0040917723 -0.009030804 -0.027738517 0.15492834 0.038990095 -0.121365644 0.017723376
0.023453163 0.060034256 0.073946446 0.016221464 -0.0787529 0.14033243 -0.01806821 0.011372446
0.11532716 -0.021355981 -0.012574244 0.13900758 0.061731767 0.000554309 0.0059063705 -0.075402215
-0.06926171 0.122098096 0.1419583 0.045118656 -0.16340666 0.10004218 0.09978923 -0.12910691
0.04440115 0.12780343 0.013165084 0.005753078 0.08590401 -0.017525742 0.003883205 -0.025564294
0.031039875 -0.10355943 -0.13554655 -0.038462427 -0.018875657 -0.010847288 0.03956561 0.085831456
-0.12863389 -0.037043832 -0.06694567 0.09433186 -0.0028380668 -0.06691383 0.18320283 0.041035336
-0.07423717 -0.02688335 -0.009652367 -0.12802826 0.12501298 -0.07320025 -0.012589595 -0.12009187
0.08173621 -0.087178655 -0.013188299 0.14790289 -0.041534707 -0.018396836 -0.075086586 0.080318764
-0.06575947 -0.12181665 0.06609208 -0.15613048 0.13351487 0.032099057 -0.07771306 -0.088509
0.024576379 0.10074363 0.10987421 -0.087315224 -0.1611262 0.08416551 0.15748101 0.12201113
-0.17341052 0.20870411 0.014153683 0.08179427 -0.11295346 0.1902125 0.15965968 -0.120196216
-0.043516252 -0.041324243 0.03514171 0.05786172 0.051762916 0.08137597 0.14801253 0.08761123

fc2.bias f4 [64]
00000000: 2c3d b83c 248f d63d 829b 053e 100a 18bd
00000010: ad9c 083e 416d 063b d467 a2bd ec21 4f3d
00000020: 906b 7abd a542 70bd bae9 863c e276 61bd
00000030: f121 c3bd 3509 3bbd a108 ac3b 8f07 0dbd
00000040: 2b7c 763d ef71 53bd 2846 0b3e 2767 553c
00000050: 2ed2 663d 22a1 1cbd 514f 3f3d ab00 9d3c
00000060: 82ce 16bd ba49 493c ee6c ac3d 192e a63d
00000070: 3809 d83d 3001 8cbd 1b07 153e fae3 14bd
00000080: 7189 243d b27b db3d ec97 d53d d91a 42bd
00000090: c327 90bc 3b3d b53d 7830 44bd b4af e5bd
000000a0: b990 923d f824 0d3d ce1d 9f3d 1894 c9bd
000000b0: 33a0 923d 6dbc c8bd 63ad e3bc 29de 87bd
000000c0: 93a4 183e 82f0 d5bc 0f76 1e3e 7673 883d
000000d0: f371 0cbe e9a9 1c3d afd5 1b3d 7907 a3bc
000000e0: fb54 9dbd 5a0a 983d 151d 3d3d 5198 33bc
000000f0: 712b d4bd 2a98 d7bc b545 833c 7f5e 53bd
0.022490107 0.10476521 0.13047603 -0.03711897 0.13341017 0.0020511898 -0.0792996 0.05056946
-0.061137736 -0.058657307 0.016468871 -0.055045016 -0.09527958 -0.045663077 0.005250052 -0.034431037
0.06017701 -0.051622327 0.13600981 0.013025082 0.056352787 -0.038239606 0.0467065 0.019165358
-0.036818035 0.012285644 0.08419214 0.08114261 0.10548633 -0.06836164 0.14553492 -0.036350228
0.040170137 0.107169524 0.104293674 -0.047388885 -0.017597085 0.088495694 -0.047897786 -0.11215153
0.0715651 0.034459084 0.07769357 -0.098427 0.07159462 -0.09801564 -0.027792638 -0.066341706
0.1490653 -0.02611566 0.15474723 0.066626474 -0.13715343 0.038247976 0.03804558 -0.019901024
-0.07682224 0.074238494 0.046170313 -0.010961608 -0.10359848 -0.026317675 0.01602445 -0.05160379

fc3.weight f4 [9, 64]
00000000: 4dc8 0e3a a4f4 5fbc 6d53 01be c307 0d3e
00000010: 4d09 3a3d 0b7b df3c 50cf 1ebe 11dd 05be
00000020: 6ce9 c53d 2e02 76bd a673 a0bd 58d0 f5bc
00000030: 448e 043e f4e2 7c3d bb3e 81bd c84f 143d
00000040: a718 c0bd 4b83 1b3d 2dd1 e0bd 77f8 13be
00000050: 29a5 e4bd 4f21 e23c 3611 b93d 43ec c6bd
00000060: ca4a d4bd 57df 223d 1de2 6fbb e20f c8bc
00000070: 7ce6 b73c ac37 d0bd 3f65 183d a1d6 9fbd
00000080: 8742 4fbd f44c dabc 3b36 2a3d 090d 483d
00000090: ca24 bb3d f1b8 0cbe 35fe 96bd 27bb 8fbd
000000a0: 973f a5bd 92a2 d3bc ffcd d6bd ce94 92bd
000000b0: 4f8f f93d ace4 15be 1d77 17bd 3f6b 08be
000000c0: 948e 22bd 9ab1 073e ce8d e2bd 29a9 e23d
000000d0: c4dc 4abd e63f 543d 8527 77bd 35dd f2bd
000000e0: 4262 05bd ea62 00be 3ad6 c73d 0db8 973d
000000f0: 587b 023d e419 a4bd 7b82 9dbd 7ef5 d8bd
00000100: 7216 7a3e ce0e 3cbd d56c 7bba 2298 a4bd
00000110: 8849 17be e212 c33c 8865 2b3d 28a3 4ebd
00000120: fd40 8c3d 25cb fdbc 6a4c 16be 2a11 bbbd
00000130: a2d3 b73c 4086 55bd e5cf d23d 4480 163e
00000140: 4159 463c 558b 35bc a2e8 a9bd 9684 bcbb
00000150: 3869 d9bd 1eb6 4fbc e0b0 97bc 93ca c03a
00000160: 9663 92bd 4d86 c5bc 4c30 ae3d 28ef 2ebe
00000170: 99a7 28be 5efb ddbd 2123 05be 21cd 04be
00000180: 051e 45bd 2487 16bc 3f8c 19be f59f 7cbd
00000190: 183c 8bbc 9924 db3d 980d b23d 3871 e53c
000001a0: b037 0b3d 1738 01bd b8eb ccbc 06a5 083d
000001b0: 43d7 2e3c 97d2 583c 7989 a33d 3179 2cbe
000001c0: 4dd2 85bd 4329 083d a1a2 64bc 450f 173e
000001d0: 76ca b83d 8af3 b73d c11a 06be 4ac4 2ebe
000001e0: 7f30 f6bd 5d04 a4bd 08c7 26bd fe90 5e3d
000001f0: 57f6 743d d462 b9bc fd0f b6bc 244b 0bbe
00000200: cad6 ffbd 7610 f73d feca eabd b0b4 75bd
00000210: 54cf 98bd 326f f83d 2ce6 e0bd d6fe cf3d
00000220: aae6 b93d f01e 2a3c f4b5 0e3d 1c27 413d
00000230: c877 aabd a862 ea3d 5a05 bd3d c45d 713d
00000240: 9c36 27bd 50cb 2bbc dc09 6a3d 8842 f8bc
00000250: 586a c3bd 78aa 26bd c264 963d a818 c43d
00000260: def6 e4bd 68ea b6bd 38c8 a43c 60ba 503c
00000270: 90cb 0ebd d028 0b3c 4013 cabc f865 eebc
00000280: ccac 59bd 50a1 0dbc 80a3 2dbb ac20 ef3d
00000290: 2414 6b3d a096 7abd ac11 b4bd d68d 833d
000002a0: 201f 063c 38ac 79bd a074 b2bc 48e0 0bbd
000002b0: a866 9b3c 4e3f c73d 20b0 743d 98ef c9bc
000002c0: f855 30bd 6025 b23b 4883 69bd 70e8 6abd
000002d0: 383b f63c 547e ab3d a44a 4d3d c422 283d
000002e0: b0ed b4bd 7885 2dbd 202c be3b 04a7 fabd
000002f0: a0c9 0e3c eed0 86bd a000 443d 1ae1 9ebd
00000300: 3433 8d3d 9e25 19bd 3fd2 eebd 73cb 0fbe
00000310: 2916 d2bd 51b3 50bc 01b2 35bd 2e64 00be
00000320: 5e42 d33d 99e5 6e3d d7d3 6abd 1ac0 413d
00000330: 41dd 14be 96f7 893d 71d3 abbd 063a 2a3d
00000340: 286a 27bd 5750 803d 20fb 05be 853d c4bc
00000350: 785c 573b 07a8 113e 30a1 0abd 6d7a 613d
00000360: 2a8e 20bd b502 123e 5aa8 fb3d 8f8f 893d
00000370: 4959 683d e6bb b9bd d6f7 39bd cd31 043d
00000380: 8013 c9ba b2e5 23bd 7680 4cbd d36c 34be
00000390: f324 e53d 8ad2 22be 1603 7c3d 2894 4d3d
000003a0: ac81 c63c de1f 8bbd 6848 d2bd f053 163d
000003b0: 40a3 45bd abea 8f3c 5873 913d 1d43 d9bd
000003c0: f0c9 ffbd 1b55 bdbd 1f51 a53b 9368 9bbc
000003d0: 7c6a 77bd 0755 b1bd 6b6c 413d 30bb 9c3d
000003e0: a04b be3d 760c 3bbb 7582 a3bd 70c0 bfbd
000003f0: c392 3c3e 89b8 963d db0c a43d 0e50 5a3d
0.0005446717 -0.013669167 -0.1262948 0.13772492 0.045419026 0.027280351 -0.15508771 -0.13072611
0.09663662 -0.060060672 -0.07834558 -0.030006573 0.12944895 0.061739877 -0.06310793 0.036208898
-0.09379702 0.037967008 -0.10977397 -0.1445025 -0.11164314 0.027603773 0.09036486 -0.09713032
-0.103658274 0.039763775 -0.003660328 -0.024421636 0.02244877 -0.101668686 0.03720593 -0.07804609
-0.050600555 -0.026648022 0.041555624 0.048840556 0.09137876 -0.13742425 -0.07372705 -0.07018118
-0.080687694 -0.025834356 -0.104885094 -0.071572885 0.12185537 -0.14638013 -0.03697883 -0.13322161
-0.039686754 0.13251343 -0.11062203 0.11067421 -0.049526945 0.05181875 -0.060340423 -0.11858598
-0.03256441 -0.12537733 0.09757657 0.07408152 0.03185591 -0.08012751 -0.07690903 -0.10593699
0.24422625 -0.045912556 -0.00095911074 -0.080368295 -0.14774144 0.023812715 0.041844875 -0.050448567
0.06848333 -0.030980656 -0.14677587 -0.09134133 0.022439782 -0.052129984 0.10293559 0.14697367
0.012106241 -0.011080583 -0.08296324 -0.00575311 -0.10615772 -0.012677697 -0.018516958 0.0014708809
-0.07147901 -0.024111891 0.08505306 -0.17083418 -0.16470183 -0.1083896 -0.13001682 -0.12968875
-0.048124332 -0.0091874935 -0.14994906 -0.061675984 -0.016996428 0.1070034 0.08693999 0.028008088
0.033988655 -0.031547632 -0.025014743 0.033360504 0.01067144 0.013233802 0.07985205 -0.16843106
-0.06534252 0.033242475 -0.013954789 0.14751919 0.09022991 0.08981998 -0.13096143 -0.17067066
-0.12020969 -0.08008645 -0.040717155 0.054337494 0.05980524 -0.022630133 -0.02222442 -0.13602883
-0.1249214 0.120636865 -0.11464499 -0.05998677 -0.0746142 0.12130584 -0.10981402 0.10156028
0.09077199 0.010383353 0.034841493 0.04715644 -0.08323628 0.114445984 0.09229536 0.058927312
-0.040823564 -0.010485485 0.05713831 -0.030305162 -0.09541768 -0.040689915 0.07343437 0.09575015
-0.11179899 -0.08931428 0.020115003 0.012739748 -0.0348621 0.008493617 -0.024667382 -0.029101357
-0.053143308 -0.008644417 -0.0026495159 0.116761535 0.057392254 -0.061178803 -0.08792433 0.064235374
0.008186132 -0.060955256 -0.021784127 -0.03414944 0.018969849 0.09728871 0.05973828 -0.02465038
-0.043050736 0.0054365844 -0.057009965 -0.057350576 0.030057535 0.083737046 0.05012001 0.04104878
-0.08834398 -0.042363614 0.0058036 -0.12238887 0.008715063 -0.06582819 0.04785216 -0.077577785
0.06894532 -0.03738939 -0.11661195 -0.14042453 -0.10258133 -0.012738065 -0.04435921 -0.12538216
0.10315393 0.05832443 -0.057330932 0.047302343 -0.14537527 0.067366764 -0.083899386 0.04155924
-0.040872723 0.062653236 -0.13084078 -0.023955116 0.0032861512 0.14224254 -0.033845127 0.055048395
-0.03919808 0.14258845 0.1228797 0.06716835 0.056725774 -0.09069042 -0.04540237 0.032274056
-0.0015340894 -0.040013976 -0.049927197 -0.17619638 0.11188688 -0.15900627 0.06152638 0.05019012
0.024231754 -0.067931876 -0.10267717 0.036701143 -0.04825139 0.017567953 0.07102078 -0.10608504
-0.124896884 -0.09244748 0.005045071 -0.018970763 -0.060404286 -0.08658796 0.047222536 0.07652891
0.09291768 -0.0028541363 -0.07983867 -0.093628764 0.1841536 0.07359416 0.080102645 0.053299002

fc3.bias f4 [9]
00000000: cc15 303d 7bbd 823d 0017 703b 419c 21be
00000010: 5a40 22be 0b36 4b3c 1bf3 b6bd 82c9 49bd
00000020: 7708 f1bd
0.042989537 0.06383797 0.0036634803 -0.15782262 -0.1584486 0.012403022 -0.089330874 -0.04926444
-0.11769193
