notebooks-rl/tictactoe_dqn_model.pt (torch, 78068 bytes, 6 tensors)

layer1.weight f4 [128, 9]
0.4550794 0.21194758 -0.13205047 0.20729704 -0.18250424 0.11047943 -0.2325395 0.22657317
0.37194213 -0.5289669 0.32137367 0.117967516 0.2815706 0.15559699 0.24622425 -0.095350005
0.26350448 0.013815966 -0.18206993 0.19081938 -0.15657713 -0.12950976 -0.042166337 0.48741472
-0.49349776 -0.24594292 -0.109661624 -0.29448625 0.04449387 -0.28863916 0.3527398 -0.40103632
0.31598994 0.12286879 -0.13131075 0.26493332 0.08927769 0.24304116 0.0036169076 -0.122953236
0.11632103 -0.09465788 0.110042565 0.29148814 0.2316716 -0.13566588 0.19806007 0.071245
0.11010126 -0.18680409 -0.31362343 -0.13675015 -0.28200197 0.28152198 0.047692783 0.107875116
0.056244396 -0.050055884 0.5324663 -0.33941907 -0.06038783 -0.31993857 0.12972943 -0.0720983
0.022239927 -0.037562396 0.2862411 -0.23388322 -0.23160242 -0.18200113 0.3181386 0.13095132
0.56040156 -0.29733604 -0.42709464 -0.32808325 -0.42357728 0.13355292 0.16882892 0.28799537
-0.14589089 -0.34686953 0.18753844 -0.13349769 0.15704411 0.086325265 0.30319646 -0.36070722
-0.23047674 0.0978439 0.080331214 -0.1325061 0.25125077 0.28884438 -0.4087103 -0.21201637
0.4678528 -0.116563864 -0.117690235 -0.32143393 -0.21771747 0.12246571 -0.058468882 -0.23037805
0.04963499 -0.27744326 -0.31001112 -0.17143464 -0.5337915 -0.2782571 0.4955095 0.09390419
0.28108034 -0.4028259 -0.30469695 -0.13814852 0.096514724 -0.3003281 -0.16680504 -0.19255234
-0.024972728 -0.08688967 0.02891615 -0.24832505 -0.2879307 -0.15955901 -0.3435927 -0.3070171
0.35324743 -0.082243785 0.5387963 0.17110854 -0.46780244 0.18781574 -0.10166879 -0.13786015
-0.34674838 -0.42319667 0.15720968 0.050886102 0.2442348 -0.37797967 0.2613638 -0.30580786
-0.22282808 0.0092437165 0.23820326 0.3358966 0.50734806 -0.34698564 0.0654933 -0.24585924
-0.068423435 -0.49986735 0.3370602 -0.3488223 0.1696357 0.36312172 0.1386426 -0.30131856
0.35937604 0.0959511 0.25538248 -0.3649772 0.19890672 -0.092886895 -0.35978615 0.44889116
0.100622736 -0.2837768 -0.17380849 0.17611544 0.2168374 -0.18414065 -0.23027079 -0.24982834
-0.37575606 0.2784163 0.29728574 -0.34174186 -0.061471757 0.27590945 0.0951535 -0.20586966
0.36415213 0.32774776 -0.00823404 -0.16976172 -0.12550037 -0.05846856 -0.12673159 -0.17127024
0.2768296 0.51105714 -0.021139756 -0.17627418 -0.071510695 -0.017337475 0.09966506 0.049798895
-0.327589 -0.11266948 0.34397757 0.14774999 -0.04173197 -0.2280361 -0.21305625 -0.4447342
-0.16589318 0.14785564 0.26004383 0.28014395 -0.29580098 -0.25609222 -0.091118425 0.36527336
0.114614785 -0.08334017 0.12769817 -0.1269587 -0.23315133 0.30920422 -0.18654458 -0.1412959
-0.34082517 0.40530193 0.23941232 0.121023186 -0.32063067 -0.6105309 -0.35602167 0.36691296
0.20994255 0.40844664 0.36666858 0.05242129 -0.02100194 -0.31419995 -0.41929853 -0.3103808
0.20398624 -0.21049245 -0.073174685 -0.27359024 -0.08962585 -0.30512986 -0.23763838 0.28244492
-0.15221095 0.28102776 -0.123619564 -0.28635654 -0.14368723 -0.21671443 -0.16405796 -0.39657333
00000000: 2b00 e93e c908 593e 3d38 07be ad45 543e
00000010: 64e2 3abe 0a43 e23d d61e 6ebe cc02 683e
00000020: 336f be3e 606a 07bf 178b a43e f498 f13d
00000030: 062a 903e d154 1f3e 3622 7c3e dd46 c3bd
00000040: 0fea 863e 5d5c 623c 8a70 3abe 2866 433e
00000050: c155 20be 359e 04be 9cb6 2cbd 6c8e f93e
00000060: bdab fcbe 76d8 7bbe 4696 e0bd e7c6 96be
00000070: 343f 363d 83c8 93be 509a b43e a254 cdbe
00000080: 6fc9 a13e a2a2 fb3d 5376 06be 57a5 873e
00000090: 39d7 b63d c8df 783e a409 6d3b e8ce fbbd
000000a0: b839 ee3d fedb c1bd ff5d e13d ef3d 953e
000000b0: 523b 6d3e ffeb 0abe 42d0 4a3e e6e8 913d
000000c0: c57c e13d 9249 3fbe 4093 a0be 3b08 0cbe
000000d0: 9062 90be a623 903e 8259 433d a1ed dc3d
000000e0: 8660 663d 6607 4dbd b64f 083f 56c8 adbe
000000f0: 3b59 77bd fdce a3be cbd7 043e 46a8 93bd
00000100: 8230 b63c 07db 19bd 328e 923e 157f 6fbe
00000110: 2f29 6dbe 815e 3abe 10e3 a23e 1a18 063e
00000120: 7a76 0f3f 6e3c 98be 26ac dabe 87fa a7be
00000130: 1fdf d8be 19c2 083e 7de1 2c3e 2174 933e
00000140: 6c64 15be e298 b1be 140a 403e 9eb3 08be
00000150: 2cd0 203e 4dcb b03d 913c 9b3e 9eae b8be
00000160: 1802 6cbe 6262 c83d b184 a43d aeaf 07be
00000170: f1a3 803e 69e3 933e 7a42 d1be d21a 59be
00000180: 678a ef3e 09b9 eebd 9407 f1bd fd92 a4be
00000190: 54f1 5ebe 4dcf fa3d 117d 6fbd 39e8 6bbe
000001a0: 0f4e 4b3d 0b0d 8ebe c7b9 9ebe 908c 2fbe
000001b0: 8fa6 08bf b777 8ebe 6cb3 fd3e d750 c03d
000001c0: c3e9 8f3e 323f cebe 3d01 9cbe ce76 0dbe
000001d0: 83a9 c53d 9bc4 99be f1ce 2abe 712c 45be
000001e0: 9b93 ccbc 36f3 b1bd 90e1 ec3c ec48 7ebe
000001f0: a76b 93be 7063 23be 62eb afbe 5831 9dbe
00000200: d9dc b43e 6e6f a8bd 8eee 093f 1437 2f3e
00000210: cd83 efbe c552 403e ba37 d0bd 362b 0dbe
00000220: 0189 b1be 3cad d8be 93fb 203e f26d 503d
00000230: b018 7a3e 8d86 c1be 7ad1 853e d992 9cbe
00000240: 0b2d 64be f572 173c 8eeb 733e a4fa ab3e
00000250: 90e1 013f 1aa8 b1be 5a21 863d 86c2 7bbe
00000260: 9621 8cbd 9dee ffbe 2893 ac3e d698 b2be
00000270: fbb4 2d3e 17eb b93e 53f8 0d3e 6d46 9abe
00000280: 2300 b83e 0382 c43d 7ec1 823e 4bde babe
00000290: 34ae 4b3e 7c3b bebd e435 b8be 10d5 e53e
000002a0: 4b13 ce3d 314b 91be dafa 31be 9b57 343e
000002b0: a00a 5e3e 5e8f 3cbe 1bcc 6bbe 00d3 7fbe
000002c0: 1963 c0be 958c 8e3e d635 983e caf8 aebe
000002d0: cfc9 7bbd 0144 8d3e d7df c23d 7fcf 52be
000002e0: 2672 ba3e 8ece a73e 11e8 06bc 04d6 2dbe
000002f0: 2b83 00be bb7c 6fbd edc5 01be 7761 2fbe
00000300: 9cbc 8d3e a4d4 023f 482d adbc 3881 34be
00000310: 3374 92bd 5207 8ebc 321d cc3d edf9 4b3d
00000320: bfb9 a7be 42bf e6bd d41d b03e c64b 173e
00000330: 24ef 2abd 4c82 69be 6b2b 5abe 33b4 e3be
00000340: e7df 29be 7867 173e 7724 853e 076f 8f3e
00000350: 3a73 97be 851e 83be 4c9c babd 1c05 bb3e
00000360: 28bb ea3d 40ae aabd 4fc3 023e 7601 02be
00000370: 39bf 6ebe 0450 9e3e 8b05 3fbe dfaf 10be
00000380: a380 aebe bc83 cf3e 8128 753e 01db f73d
00000390: b429 a4be c14b 1cbf 7948 b6be 04dc bb3e
000003a0: 2efb 563e eb1f d13e fcbb bb3e b5b7 563d
000003b0: 430c acbc d1de a0be 4cae d6be 3bea 9ebe
000003c0: c5e1 503e 558b 57be 9cdc 95bd 0514 8cbe
000003d0: c28d b7bd fb39 9cbe 7a57 73be 9f9c 903e
000003e0: 30dd 1bbe dfe2 8f3e 412c fdbd 539d 92be
000003f0: bf22 13be 63ea 5dbe cffe 27be a90b cbbe

layer1.bias f4 [128]
0.56163114 0.51767737 0.22154729 0.48351425 0.76466215 0.71277845 0.04490416 0.76593727
0.4573435 0.61178493 0.6820066 0.7126018 0.06266227 0.7386201 0.16257408 0.4729347
0.08081359 0.3709979 0.43123573 0.42110124 0.369164 0.45863235 0.77560854 0.6499948
0.6574788 0.5910654 0.7008192 0.46716067 0.49550775 0.50044405 -0.056738462 0.036957636
0.49253342 0.33960995 0.4366223 0.37473556 0.51002467 0.6486744 0.29495394 0.71386665
0.72338027 0.11573679 0.058378085 0.06286956 0.30009726 0.31168255 0.4203693 0.37425783
0.24316506 0.33087415 0.33313435 0.7813731 0.27826372 -0.053139944 0.6119727 0.43654457
0.711259 0.652227 0.7580576 0.060245853 0.68677735 0.73081255 0.22421406 0.7885047
0.7153002 0.46800667 0.61438847 0.2816423 0.0039856727 0.5530045 0.54411614 0.14733967
0.6068357 -0.02931225 0.737515 0.76425976 0.52347296 0.12326313 0.62690806 0.50095415
0.5455161 0.5459871 0.72100514 0.2765828 0.3618073 0.5581682 0.5150834 0.72739154
0.19967003 0.44281685 0.50224954 0.35007274 0.6976044 0.51802933 -0.061642777 0.44270888
0.27474567 0.504078 0.39997748 -0.1061989 0.3604851 0.4355951 0.3436642 0.7386425
0.33531198 0.65649784 0.5124124 0.059882306 0.52310395 0.7363101 0.06052026 0.20933162
0.78008485 0.7381986 -0.02998938 0.6518897 0.40662372 -0.14520635 0.47479495 0.57981306
0.3503005 0.57332176 0.08821216 0.7001881 0.7462934 0.62282974 0.50360787 0.5826529
00000000: 0fc7 0f3f 8186 043f 4bdd 623e 2e8f f73e
00000010: e6c0 433f a678 363f 6ded 373d 7714 443f
00000020: ed28 ea3e f09d 1c3f fc97 2e3f 126d 363f
00000030: 1455 803d 3516 3d3f d279 263e 7f24 f23e
00000040: 9881 a53d 70f3 bd3e eeca dc3e 959a d73e
00000050: 1003 bd3e dcd1 ea3e 488e 463f 0f66 263f
00000060: 8850 283f 1050 173f e368 333f af2f ef3e
00000070: 31b3 fd3e 1a1d 003f 9766 68bd e460 173d
00000080: 572d fc3e 5be1 ad3e f58c df3e 57dd bf3e
00000090: fa90 023f 870f 263f 3404 973e f7bf 363f
000000a0: 732f 393f 6907 ed3d dc1d 6f3d c2c1 803d
000000b0: 59a6 993e db94 9f3e a53a d73e b99e bf3e
000000c0: 4300 793e 5668 a93e 9690 aa3e 1108 483f
000000d0: 9578 8e3e 45a9 59bd 3eaa 1c3f c582 df3e
000000e0: 1215 363f 59f8 263f 1010 423f 5bc4 763d
000000f0: a4d0 2f3f 8816 3b3f 5f98 653e 72db 493f
00000100: ea1d 373f 929e ef3e 9048 1d3f 6b33 903e
00000110: 3f9a 823b b491 0d3f 324b 0b3f 36e0 163e
00000120: 9659 1b3f 3e20 f0bc c8cd 3c3f 87a6 433f
00000130: 5302 063f 6171 fc3d 0c7d 203f 883e 003f
00000140: f1a6 0b3f d0c5 0b3f cb93 383f 439c 8d3e
00000150: ce3e b93e 1ce4 0e3f 81dc 033f 5536 3a3f
00000160: 4d76 4c3e e4b8 e23e 6d93 003f bc3c b33e
00000170: 3496 323f 929d 043f 237d 7cbd bdaa e23e
00000180: 77ab 8c3e 410b 013f d9c9 cc3e cf7e d9bd
00000190: 8191 b83e 5206 df3e c1f4 af3e ad17 3d3f
000001a0: 03ae ab3e 3e10 283f 762d 033f 2647 753d
000001b0: 24ea 053f d27e 3c3f 18e4 773d 075b 563e
000001c0: a4b3 473f 95fa 3c3f 4aac f5bc 3ee2 263f
000001d0: fc30 d03e f9b0 14be 5318 f33e a16e 143f
000001e0: 965a b33e 37c5 123f 94a8 b43d 873f 333f
000001f0: 160d 3f3f c571 1f3f 72ec 003f be28 153f

layer2.weight f4 [128, 128]
0.2374394 0.31030294 0.23886229 0.2571567 0.2713542 0.3802736 0.21623738 0.24688807
0.28355977 0.36048892 0.3908997 0.37377262 0.25451154 0.30230692 0.2730182 0.36220184
0.085973956 0.23103252 0.29636395 0.29941684 0.2633952 0.32677978 0.31655666 0.3303219
0.25277016 0.33640355 0.3511953 0.25730243 0.31910375 0.31792375 0.16039477 0.30520308
0.29780442 0.24192752 0.38924503 0.24155644 0.27260533 0.3447123 0.19191961 0.31772423
0.2613734 0.17080541 0.11503365 0.15171105 0.21091089 0.20237345 0.30743405 0.33618608
0.116621725 0.27748287 0.20415731 0.32337922 0.27261987 0.2709464 0.24398169 0.34328198
0.35715196 0.31887096 0.4119767 0.1494458 0.32650098 0.27535585 0.16690344 0.3474366
0.33536527 0.25423285 0.27158454 0.2573116 0.10532099 0.30889416 0.29529974 0.18236539
0.34246352 0.18994355 0.36480388 0.30539665 0.24258995 0.2236482 0.3174791 0.25805378
0.2369666 0.3263551 0.22443506 0.26616454 0.25858486 0.21103553 0.30859998 0.26110616
0.23556548 0.34258735 0.33622947 0.3115573 0.25997704 0.2081508 0.13300079 0.2969005
0.34627324 0.32204425 0.332654 0.1854761 0.31846225 0.19830422 0.34436768 0.22566256
0.35405585 0.31127292 0.19783595 0.16210023 0.2815263 0.23687792 0.19115047 0.31536263
0.39266172 0.2738332 0.16507016 0.3056287 0.29446155 0.12980275 0.23162004 0.22170264
0.23051281 0.22934045 0.11307123 0.31033722 0.26263112 0.2625024 0.2652302 0.31056938
0.2632352 0.34383732 0.26986125 0.3562833 0.31573913 0.2753712 0.10704181 0.3196497
0.19226952 0.3341477 0.2949895 0.3695136 0.21459725 0.39756665 0.19993408 0.2509321
0.1819257 0.25549227 0.28666806 0.19149667 0.27386355 0.26130095 0.3745555 0.35757017
0.33705255 0.35452202 0.1904451 0.3153794 0.362654 0.36044684 0.05539287 0.21849799
0.19558306 0.27149418 0.30040187 0.20828898 0.20118529 0.25005803 0.31774208 0.34883165
0.22625299 0.14186823 0.10396516 0.101001956 0.34434795 0.3871048 0.26630354 0.17624706
0.2570744 0.26131985 0.35058847 0.2823432 0.11503034 0.2630784 0.3202023 0.290339
0.24694404 0.28667912 0.38743418 0.17727692 0.38792872 0.39363575 0.17173886 0.32355133
0.2883227 0.3619829 0.21933047 0.262241 0.15550798 0.34825867 0.31045103 0.14078017
0.29211098 0.2363225 0.22760946 0.25258362 0.27393994 0.035961527 0.34701598 0.34100676
0.3119405 0.37752643 0.2749244 0.19908887 0.21247002 0.2152706 0.28263354 0.20879832
0.0885717 0.29204777 0.3700252 0.3049466 0.36634716 0.30643752 0.12444872 0.21234757
0.30134177 0.26644796 0.31299776 0.10550593 0.30040628 0.3306569 0.20992799 0.364965
0.35391068 0.35484242 0.27493337 0.2128918 0.3626433 0.3458354 0.3133755 0.27861655
0.37467098 0.3132589 0.18426895 0.33726338 0.3057869 0.08662173 0.2898158 0.31105274
0.27635214 0.29746565 0.30686978 0.35365257 0.26487213 0.28463453 0.26431352 0.2677816
00000000: 5023 733e 07e0 9e3e 5198 743e 0baa 833e
00000010: f0ee 8a3e 39b3 c23e 556d 5d3e 3ad0 7c3e
00000020: bf2e 913e 0192 b83e 0124 c83e 205f bf3e
00000030: 564f 823e f9c7 9a3e 0bc9 8b3e 8572 b93e
00000040: 1d13 b03d ca93 6c3e 04bd 973e 2a4d 993e
00000050: bcdb 863e ae4f a73e b713 a23e f41f a93e
00000060: 176b 813e 163d ac3e dfcf b33e 25bd 833e
00000070: 9161 a33e e7c6 a23e 873e 243e 9443 9c3e
00000080: d279 983e d9bb 773e 204b c73e 925a 773e
00000090: ed92 8b3e 217e b03e 9386 443e c0ac a23e
000000a0: bcd2 853e 9de7 2e3e c396 eb3d 245a 1b3e
000000b0: 06f9 573e fc3a 4f3e ff67 9d3e 9520 ac3e
000000c0: 5fd7 ee3d 3c12 8e3e 9d0e 513e f691 a53e
000000d0: d594 8b3e 7db9 8a3e 56d6 793e a8c2 af3e
000000e0: 9fdc b63e 0e43 a33e 9cee d23e 5208 193e
000000f0: 232b a73e 71fb 8c3e bce8 2a3e 36e3 b13e
00000100: ffb4 ab3e cf2a 823e 210d 8b3e 59be 833e
00000110: 88b2 d73d 6027 9e3e 8731 973e febd 3a3e
00000120: 6157 af3e 9080 423e 93c7 ba3e f35c 9c3e
00000130: 8069 783e 0904 653e 9f8c a23e a01f 843e
00000140: 5fa7 723e 0418 a73e 4ed2 653e b846 883e
00000150: 3c65 843e b319 583e d100 9e3e b5af 853e
00000160: 1438 713e 9c67 af3e 4526 ac3e 7084 9f3e
00000170: b61b 853e 7c25 553e 5c31 083e 5803 983e
00000180: ba4a b13e fce2 a43e a051 aa3e 72ed 3d3e
00000190: 7c0d a33e 4310 4b3e f650 b03e 1614 673e
000001a0: cf46 b53e 2a5f 9f3e 8295 4a3e 9afd 253e
000001b0: 3724 903e 2090 723e f3bc 433e 3677 a13e
000001c0: f50a c93e dd33 8c3e 2708 293e 5d7b 9c3e
000001d0: aac3 963e 03eb 043e ce2d 6d3e 0406 633e
000001e0: 8d0b 6c3e 39d8 6a3e e491 e73d 85e4 9e3e
000001f0: 9677 863e b766 863e 41cc 873e f302 9f3e
00000200: c4c6 863e 720b b03e 412b 8a3e c46a b63e
00000210: 8fa8 a13e 74fd 8c3e bd38 db3d 20a9 a33e
00000220: 4de2 443e 6815 ab3e dd08 973e e330 bd3e
00000230: 62bf 5b3e db8d cb3e 85bb 4c3e 2c7a 803e
00000240: bb4a 3a3e e2cf 823e 28c6 923e b417 443e
00000250: d837 8c3e 3dc9 853e bdc5 bf3e 7013 b73e
00000260: 2792 ac3e e983 b53e 0a04 433e 6979 a13e
00000270: c9ad b93e 7d8c b83e a2e3 623d f0bd 5f3e
00000280: ed46 483e 4901 8b3e 46ce 993e b549 553e
00000290: 8403 4e3e 9b07 803e 17af a23e 109a b23e
000002a0: ddae 673e e845 113e b0eb d43d 1dda ce3d
000002b0: 604e b03e 9a32 c63e f058 883e 1c7a 343e
000002c0: 419f 833e b7cb 853e 5580 b33e 4a8f 903e
000002d0: 0795 eb3d 36b2 863e 8ef1 a33e 50a7 943e
000002e0: e6de 7c3e 9bc7 923e c65d c63e 1588 353e
000002f0: 989e c63e a08a c93e 50dc 2f3e 85a8 a53e
00000300: 089f 933e d355 b93e 2b98 603e 7444 863e
00000310: 7c3d 1f3e f64e b23e 70f3 9e3e ad28 103e
00000320: 928f 953e 87fe 713e 7412 693e a452 813e
00000330: db41 8c3e 654c 133d 14ac b13e 7098 ae3e
00000340: aab6 9f3e 254b c13e e4c2 8c3e f4dd 4b3e
00000350: be91 593e e56f 5c3e 58b5 903e 3acf 553e
00000360: 1465 b53d 4987 953e f173 bd3e f621 9c3e
00000370: db91 bb3e 61e5 9c3e f8de fe3d a471 593e
00000380: 7849 9a3e de6b 883e 3e41 a03e 7e13 d83d
00000390: dace 993e dc4b a93e 5df7 563e b1dc ba3e
000003a0: c833 b53e e8ad b53e 11c4 8c3e 4f00 5a3e
000003b0: 62ac b93e 5611 b13e c172 a03e d4a6 8e3e
000003c0: e0d4 bf3e 7863 a03e 00b1 3c3e c9ad ac3e
000003d0: 1a90 9c3e bc66 b13d bd62 943e 4e42 9f3e
000003e0: 077e 8d3e 6b4d 983e 091e 9d3e f311 b53e
000003f0: 529d 873e 9ebb 913e 1a54 873e ab1a 893e

layer2.bias f4 [128]
0.2891517 0.22090688 0.36137 0.29423907 0.30362993 0.26669195 0.32807416 -0.08343149
0.35146037 0.3433548 0.30362222 0.2737452 0.31235126 0.2824483 0.297162 0.2149878
0.3395832 0.2769896 0.28871676 0.27011663 0.31178746 0.19955865 0.28034502 0.23208506
0.3890813 0.2462295 0.29841587 0.29905516 0.3601231 0.104518585 0.24080062 0.1738949
0.25849906 0.17730877 0.2678826 0.29898062 0.11084863 0.010392182 0.28798822 0.23108824
0.27530548 0.34596014 0.29840058 0.29273066 0.23073289 0.34432706 0.06213513 0.3110558
0.3559819 0.29531983 -0.0048444318 0.32556427 0.20928381 0.33819252 0.22425905 0.24458522
0.27511668 0.21471061 0.25200087 0.36747804 0.25379074 0.3161976 0.002542713 0.36265504
0.23206149 0.22776252 0.38204533 0.23375076 0.21594547 0.276109 0.26411694 0.036519077
-0.075928695 0.23743732 0.325024 0.24202272 0.320073 0.023578089 0.24300362 0.27140737
0.34706634 0.24267077 0.1131198 0.31348857 0.34518823 0.26887062 0.11653968 -0.028991435
0.12731647 0.2164014 0.26068205 -0.0722678 0.29878885 0.27188796 0.27208212 0.26716778
0.14840937 0.338541 -0.03865356 -0.030488355 0.32082742 0.026070917 0.33717617 0.29496974
0.2897904 -0.055858314 0.2919726 0.045939367 0.2836598 0.019122653 0.32800296 0.31807342
0.31195992 0.11514827 0.2764378 0.20947899 0.32883248 0.2349381 0.07659668 0.3201278
0.20526749 0.25650874 0.25717303 0.24487846 0.2296357 0.23223081 0.34112802 0.33394656
00000000: b10b 943e 6a35 623e 7d05 b93e 81a6 963e
00000010: 6275 9b3e d98b 883e 56f9 a73e 21de aabd
00000020: 9df2 b33e 33cc af3e 5f74 9b3e 5528 8c3e
00000030: 81ec 9f3e 109d 903e 9e25 983e c325 5c3e
00000040: d9dd ad3e 95d1 8d3e afd2 933e ba4c 8a3e
00000050: 9ba2 9f3e 1a59 4c3e 6289 8f3e b5a7 6d3e
00000060: aa35 c73e 9623 7c3e f7c9 983e c21d 993e
00000070: 0e62 b83e d70d d63d 7094 763e 8111 323e
00000080: fd59 843e 6e90 353e e827 893e fd13 993e
00000090: 9b04 e33d f843 2a3c 3173 933e 65a2 6c3e
000000a0: d7f4 8c3e b021 b13e f6c7 983e cbe0 953e
000000b0: 3e45 6c3e a34b b03e 6881 7e3d b542 9f3e
000000c0: 4243 b63e 2934 973e 0abe 9ebb 5cb0 a63e
000000d0: 7f4e 563e 9227 ad3e 2aa4 653e 8c74 7a3e
000000e0: 18dc 8c3e 19dd 5b3e 4206 813e 1526 bc3e
000000f0: dcf0 813e a7e4 a13e a5a3 263b ecad b93e
00000100: 87a1 6d3e 943a 693e 729b c33e 5c5c 6f3e
00000110: cf20 5d3e 295e 8d3e 563a 873e 0795 153d
00000120: 8180 9bbd c522 733e 8c69 a63e ced4 773e
00000130: 9ce0 a33e d626 c13c f1d5 783e e8f5 8a3e
00000140: aeb2 b13e b07e 783e 5bab e73d 9381 a03e
00000150: 83bc b03e 69a9 893e 5bac ee3d 727f edbc
00000160: 405f 023e 5498 5d3e 1e78 853e 2401 94bd
00000170: dafa 983e e634 8b3e 594e 8b3e 37ca 883e
00000180: a0f8 173e 3f55 ad3e 3253 1ebd b7c2 f9bc
00000190: 7e43 a43e ad92 d53c 5ba2 ac3e 4606 973e
000001a0: 685f 943e b0cb 64bd 6f7d 953e eb2a 3c3d
000001b0: db3b 913e 1ca7 9c3c 01f0 a73e 85da a23e
000001c0: 36b9 9f3e dbd2 eb3d 4189 8d3e a981 563e
000001d0: bb5c a83e 9d93 703e b8de 9c3d cae7 a33e
000001e0: a431 523e 1d55 833e 2fac 833e 6bc1 7a3e
000001f0: 9f25 6b3e eacd 6d3e 55a8 ae3e 0bfb aa3e

layer3.weight f4 [9, 128]
0.25641647 0.21410052 0.20144907 0.1872479 0.18817917 0.27733135 0.23396537 -0.04824222
0.23394896 0.22837722 0.26727808 0.26684672 0.3167901 0.21953106 0.22235435 0.0054785423
0.21629141 0.1902189 0.28193277 0.19798651 0.17881665 0.37684804 0.32692084 0.26017547
0.2780222 0.31778482 0.23826706 0.25685373 0.24764493 0.044065744 0.3149433 0.10126052
0.1945197 0.12603307 0.19713728 0.37327233 0.27513757 0.07864058 0.27330208 0.33493805
0.259325 0.28702706 0.22040558 0.3054924 0.3372115 0.20014639 -0.1583215 0.21696173
0.3280481 0.24812509 0.05989049 0.3173061 0.24046989 0.17530407 0.3733853 0.27479032
0.23258482 0.3050897 0.17391461 0.2535548 0.37890422 0.28237316 -0.07587166 0.37254152
0.2736796 0.20498046 0.31653163 0.23796989 0.29336762 0.2881895 0.23499732 -0.063862525
0.060249925 0.23190895 0.34747633 0.30868763 0.15516932 -0.068093635 0.3023759 0.17057362
0.2744618 0.20114255 0.25769842 0.33087835 0.2837508 0.2740706 0.043847743 0.056745563
0.2457431 0.3142707 0.31153908 -0.018943138 0.17206824 0.26791236 0.3893569 0.23855565
0.29327992 0.13501059 -0.045074597 -0.28333503 0.15461394 0.30882764 0.22430274 0.32851568
0.33161068 0.0108596515 0.3147945 -0.054266147 0.22630909 -0.13246043 0.31916952 0.31245923
0.23916355 -0.05056554 0.31873506 0.08663256 0.32215035 0.20716463 -0.029450716 0.31499833
0.12099744 0.3225997 0.4206179 0.31505033 0.40868914 0.23790686 0.18540204 0.3278847
0.30410448 0.2043681 0.34396544 0.23579656 0.22555636 0.21517901 0.3422242 -0.04454024
0.27278143 0.26319793 0.21855094 0.30952448 0.24886034 0.190446 0.25519723 0.3081191
0.22454016 0.36267045 0.15448749 0.2847837 0.30696347 0.29449472 0.28140223 0.28264508
0.22851218 0.31547502 0.23774011 0.312501 0.33312574 0.17227396 0.33442527 0.30329278
0.24358886 0.22860254 0.2470219 0.33237013 0.12456197 0.03554322 0.21098265 0.19853003
0.20967004 0.2631402 0.18095277 0.17312895 0.19216773 0.28899026 0.13428755 0.2669085
0.31991106 0.2906585 -0.04762407 0.28707564 0.19918144 0.33695757 0.22451584 0.21155678
0.23941079 0.20382461 0.23754662 0.23927385 0.25933537 0.24190897 -0.055913996 0.15990548
0.18384756 0.19966725 0.15997702 0.3697938 0.2989583 0.3088515 0.3141752 0.024112446
-0.021476818 0.23974408 0.2218805 0.2910409 0.2876673 0.0061926926 0.26837656 0.19300485
0.3202211 0.2571342 0.1424915 0.20615229 0.26291665 0.26651755 0.15739807 -0.07499668
0.14015418 0.18619163 0.19512905 -0.042096406 0.18187697 0.34749535 0.09122852 0.23163457
0.075731464 0.24613656 -0.02356081 0.23546226 0.23257507 0.09558447 0.34040755 0.16438794
0.24413931 0.05623083 0.24353175 -0.06336122 0.34116116 -0.045577124 0.1846187 0.19822474
0.25246838 0.32538489 0.18874642 0.23940141 0.33432946 0.3002796 0.09583546 0.16763401
0.312066 0.2466807 0.19083996 0.3190504 0.17501691 0.262489 0.21368386 0.3245056
00000000: 0549 833e 2b3d 5b3e aa48 4e3e eabd 3f3e
00000010: 0ab2 403e 60fe 8d3e 9e94 6f3e a299 45bd
00000020: 5190 6f3e b8db 693e acd8 883e 22a0 883e
00000030: 5032 a23e c0cc 603e dcb0 633e 5885 b33b
00000040: 7f7b 5d3e bec8 423e 7e59 903e fabc 4a3e
00000050: b61b 373e 3af2 c03e 2b62 a73e b835 853e
00000060: ed58 8e3e b1b4 a23e 48fc 733e 5582 833e
00000070: a296 7d3e 487e 343d 4040 a13e ad61 cf3d
00000080: 2c30 473e d00e 013e 5bde 493e 8d1d bf3e
00000090: d5de 8c3e 500e a13d 40ee 8b3e 007d ab3e
000000a0: 3fc6 843e 36f5 923e 00b2 613e 8069 9c3e
000000b0: fca6 ac3e 2df3 4c3e 081f 22be 372b 5e3e
000000c0: ecf5 a73e 8114 7e3e bb4f 753d f275 a23e
000000d0: bd3d 763e e982 333e 5c2c bf3e 51b1 8c3e
000000e0: b72a 6e3e b834 9c3e ac16 323e efd1 813e
000000f0: bcff c13e 3793 903e 9a62 9bbd c3bd be3e
00000100: bc1f 8c3e 66e6 513e 6f10 a23e 61ae 733e
00000110: 4834 963e 938d 933e 23a3 703e 5bca 82bd
00000120: a0c8 763d 8a79 6d3e 6be8 b13e 4e0c 9e3e
00000130: b5e4 1e3e ad74 8bbd 04d1 9a3e daaa 2e3e
00000140: 4286 8c3e 50f8 4d3e 0cf1 833e e368 a93e
00000150: c947 913e fb52 8c3e b199 333d 096e 683d
00000160: 14a4 7b3e 17e8 a03e 0d82 9f3e a42e 9bbc
00000170: a832 303e cf2b 893e ca59 c73e ef47 743e
00000180: c928 963e 3740 0a3e 24a0 38bd 4a11 91be
00000190: 1e53 1e3e a81e 9e3e 9eaf 653e 3533 a83e
000001a0: e0c8 a93e aeec 313c bf2c a13e 2e46 5ebd
000001b0: 92bd 673e b5a3 07be 306a a33e a8fa 9f3e
000001c0: 4ae7 743e d01d 4fbd 3e31 a33e 696c b13d
000001d0: e4f0 a43e f722 543e a142 f1bc 7647 a13e
000001e0: 81cd f73d ca2b a53e 3b5b d73e 474e a13e
000001f0: b43f d13e db9d 733e 08da 3d3e 81e0 a73e
00000200: 95b3 9b3e df45 513e 3d1c b03e a774 713e
00000210: 3ff8 663e e357 5c3e 0338 af3e d46f 36bd
00000220: 02aa 8b3e e1c1 863e d1cb 5f3e fe79 9e3e
00000230: 3fd5 7e3e 4704 433e 36a9 823e c9c1 9d3e
00000240: dbed 653e f1af b93e f831 1e3e 2bcf 913e
00000250: 512a 9d3e 03c8 963e f413 903e dbb6 903e
00000260: 19ff 693e f185 a13e 2572 733e 2200 a03e
00000270: 758f aa3e 9668 303e ca39 ab3e 3149 9b3e
00000280: 5c6f 793e c916 6a3e 4ff3 7c3e 6b2c aa3e
00000290: 591a ff3d c495 113d d60b 583e 754b 4b3e
000002a0: beb3 563e 50ba 863e af4b 393e b748 313e
000002b0: 9ec7 443e 88f6 933e ad82 093e 3ba8 883e
000002c0: 62cb a33e 31d1 943e 7511 43bd 94fb 923e
000002d0: 38f6 4b3e b485 ac3e 7be7 653e 57a2 583e
000002e0: 1a28 753e 66b7 503e 6c3f 733e 3404 753e
000002f0: 9bc7 843e fcb6 773e 1306 65bd 43be 233e
00000300: 8942 3c3e 9275 4c3e 04d1 233e 9d55 bd3e
00000310: 1011 993e c921 9e3e 92db a03e 7787 c53c
00000320: 27f0 afbc 797f 753e a434 633e 5003 953e
00000330: 2149 933e 12ec ca3b a768 893e 10a3 453e
00000340: 05f4 a33e 18a7 833e 4be9 113e 9619 533e
00000350: 039d 863e fd74 883e f62c 213e dc97 99bd
00000360: 9484 0f3e 05a9 3e3e e9cf 473e 486d 2cbd
00000370: f53d 3a3e e9ea b13e 05d6 ba3d 9d31 6d3e
00000380: 1919 9b3d 390b 7c3e 9a02 c1bc 051d 713e
00000390: 2928 6e3e cac1 c33d e649 ae3e 5055 283e
000003a0: a8ff 793e 4c52 663d 6360 793e 87c3 81bd
000003b0: adac ae3e 14af 3abd af0c 3d3e 6dfb 4a3e
000003c0: 8943 813e d998 a63e be46 413e a525 753e
000003d0: 3b2d ab3e 3fbe 993e 6245 c43d 40a8 2b3e
000003e0: 1dc7 9f3e de99 7c3e 8d6b 433e 935a a33e
000003f0: a237 333e f564 863e f1cf 5a3e 9925 a63e

layer3.bias f4 [9]
0.11210047 0.070336506 0.20354313 0.1826954 0.079911806 0.04926657 0.16206421 0.07469301
0.13402182
00000000: ee94 e53d 960c 903d 9c6d 503e 8114 3b3e
00000010: cda8 a33d becb 493d 29f4 253e a6f8 983d
00000020: 043d 093e
