notebooks-rl/tictactoe_acm_model.pt (torch, 148724 bytes, 6 tensors)

linear1.weight f4 [128, 9]
000000 5e 28 8d 3e c9 bb 8e 3e 89 83 c9 bd a1 29 9e 3e
       0.2756986 0.27877644 -0.098395415 0.30891135
000010 ed 0e 6c bd a7 7c 91 3d c1 bd 48 be 64 3c 3b 3e
       -0.05763142 0.07103854 -0.19603635 0.18284756
000020 a5 cd 9e 3e a6 f4 8a be 4a 01 ab 3e ce ef 84 3d
       0.3101627 -0.27139777 0.3339942 0.064910516
000030 50 89 71 3e 3c 84 ce 3c 47 6e 34 3e 01 f5 85 bd
       0.23587537 0.025209539 0.17620192 -0.065408714
000040 38 5e 85 3e 8e bd 41 3d b5 11 3b be b3 2f 01 3e
       0.26048446 0.047299914 -0.18268473 0.12615852
000050 22 95 2d be 62 8b 64 bd ae ed fd bd 28 a2 82 3e
       -0.16951421 -0.05579699 -0.123988494 0.2551434
000060 42 7f 95 be fd 64 26 be f2 1b df bd 58 b7 52 be
       -0.29198653 -0.16249461 -0.10894002 -0.20577753
000070 50 11 43 3d 92 81 af be e0 f7 91 3e 17 2f 90 be
       0.047623932 -0.34278542 0.28509426 -0.28160927
000080 1a 31 89 3e 18 11 81 3d 62 fb f7 bd 3d ce 5c 3e
       0.26795274 0.063020885 -0.12108494 0.21563049
000090 40 3c b5 3c 04 17 8d 3e d5 2f 47 3d 0d 84 f3 bd
       0.022123456 0.27556622 0.0486296 -0.11890421
0000a0 53 46 00 3e bb 04 a6 bd 33 03 01 3e 2e ef 90 3e
       0.12526827 -0.08106371 0.12598877 0.2830748
0000b0 3b 55 46 3e 32 32 20 be 75 d3 65 3e 54 4c 4f 3d
       0.1936845 -0.15644148 0.22443946 0.0506099
0000c0 73 21 29 3e bc b3 32 be 36 67 ae be da 33 19 be
       0.16516666 -0.17451376 -0.3406312 -0.14961186
0000d0 be 67 8a be b9 e2 8b 3e 49 d5 ce 3d e8 c7 22 3e
       -0.27032274 0.27321413 0.10099275 0.1589657
0000e0 67 a2 dd 3d f0 c1 93 bc 40 0a 98 3e 4f 8d 84 be
       0.108219914 -0.018036813 0.2969532 -0.2588906
0000f0 6e 4f b3 3a c3 09 81 be 2e b1 ed 3d 97 ed f3 bd
       0.0013680288 -0.2520276 0.1160606 -0.11910551
000100 ff 47 e0 3d ab 2b 98 bd d4 42 99 3e 93 ca 4f be
       0.10951232 -0.07430204 0.29933798 -0.2029212
000110 89 56 37 be 96 e4 61 be 94 42 94 3e f5 04 d2 3d
       -0.17904104 -0.22059855 0.28957045 0.10254852
000120 0c 8e af 3e 03 d3 8f be b1 df af be 55 39 8d be
       0.3428806 -0.28090677 -0.3435035 -0.27582803
000130 4e cf 5c be ae 03 1c 3e e6 3d d2 3d 6e 57 90 3e
       -0.21563455 0.15235779 0.102657124 0.28191704
000140 45 2d 31 be d6 61 86 be 18 56 5e 3e 28 f0 0d be
       -0.17302425 -0.26246518 0.2171253 -0.13861144
000150 5b 70 41 3e e8 ca 5f bd 0c 5d 4d 3e c9 ad 8a be
       0.18890516 -0.054636866 0.20055026 -0.27085713
000160 88 09 36 be 1f 34 ba 3d ad 81 81 3d a9 f6 ba bd
       -0.17777073 0.090919726 0.06323562 -0.09129078
000170 a7 5b 47 3e fe 0f 70 3e b7 64 74 be cf f3 34 be
       0.19468556 0.234436 -0.23866545 -0.1767113
000180 7a 2c a1 3e 51 87 f8 bd 45 a8 e4 bd ff 5a ac be
       0.31479245 -0.121351846 -0.11164907 -0.33663175
000190 44 ba 3e be c4 d6 bf 3d d5 38 75 bd 98 4d 5c be
       -0.18625742 0.09367135 -0.059868652 -0.21513975
0001a0 fc f1 19 3d 08 98 86 be 0b 35 97 be 37 9d 45 be
       0.03758429 -0.26287866 -0.29532656 -0.19298254
0001b0 34 25 9a be c2 6a 65 be 73 de bc 3e d1 d3 7d 3d
       -0.3010651 -0.22404006 0.36888465 0.061969582
0001c0 3b c3 06 3e 1d fe ac be 51 66 72 be e0 4b f5 bd
       0.13160412 -0.33787623 -0.23671843 -0.11977363
0001d0 56 75 38 3d b7 3d a0 be 2b f6 06 be 5d 6c 44 be
       0.045033775 -0.31297085 -0.13179843 -0.19181962
0001e0 24 20 10 3c 26 eb 05 be c6 27 36 3c 22 e6 67 be
       0.008796725 -0.13077983 0.011117881 -0.22646382
0001f0 9f 19 7c be eb 6b 60 be 49 32 f1 bd 32 66 91 be
       -0.24619149 -0.21916167 -0.11777169 -0.2839828
000200 ab ed 9b 3e 14 d9 a1 bd 6a 17 a5 3e 3e 0b ff 3d
       0.30454764 -0.079027325 0.32244426 0.12453316
000210 f4 51 9f be 0a bd 69 3e ee 93 eb bd 3e a7 e5 bd
       -0.31117213 0.22826019 -0.11502825 -0.112135395
000220 5e e7 86 be b9 e6 b0 be 9a a0 d5 3d be 59 9d bd
       -0.26348394 -0.34551027 0.10431023 -0.076831326
000230 eb 85 15 3e e0 d2 9e be 54 c0 81 3e d3 70 80 be
       0.14601867 -0.3102026 0.25342047 -0.25086078
000240 f8 22 7f bd e7 c5 88 3d b8 66 3b 3e 34 56 90 3e
       -0.06228921 0.06678372 0.18300903 0.28190768
000250 cc b9 a4 3e e7 d5 92 be 83 b3 be 3d 9a 0f 1a be
       0.32173002 -0.2867882 0.09311583 -0.15045014
000260 07 40 50 bd d7 16 7a be 56 2b a5 3e e7 81 84 be
       -0.05084231 -0.24422775 0.32259625 -0.25880358
000270 9e c3 35 3e 32 ca e9 3d 74 b2 00 3e 77 bb 5a be
       0.17750403 0.11415519 0.12568074 -0.21360575
000280 0d a6 9b 3e 40 ca a1 3d a1 f3 19 3d 6b d1 9b be
       0.30400124 0.07899904 0.03758586 -0.3043321
000290 f1 23 28 3e 42 c0 57 bd 47 1e 16 be bd a9 92 3e
       0.1641996 -0.052673586 -0.14659987 0.28645125
0002a0 c7 ff 91 3d 0d 8a 35 be 56 29 40 be 12 75 11 bd
       0.07128864 -0.17728443 -0.18765768 -0.035512038
0002b0 7c 7b 50 3e 92 f0 af bd 5a de 44 be f1 0d e0 bd
       0.20359606 -0.08590807 -0.19225445 -0.10940159
0002c0 f5 dd 80 be 88 b9 f3 3d fb 06 8e 3e ea 6b ac be
       -0.2516934 0.11900622 0.277397 -0.33676082
0002d0 39 89 57 3d 45 40 52 3e da 79 84 3d 7f 79 03 be
       0.0526211 0.2053233 0.06468554 -0.12839316
0002e0 a3 f9 3a 3e f0 41 41 3e 91 69 f8 3d f3 be 87 bd
       0.18259291 0.1887281 0.1212951 -0.066282175
0002f0 f2 70 e7 bd 37 56 fe 3c aa 88 97 bd 6b b9 bd bd
       -0.113008395 0.03104697 -0.073991135 -0.09263881
000300 f9 56 62 3e 0e a0 a1 3e e1 33 13 bd fb 31 bb bd
       0.2210349 0.31567425 -0.035938147 -0.091403924
000310 98 b1 c2 ba de 3b ae bc be cf 6b 3d c8 c4 e3 3d
       -0.0014853952 -0.021268781 0.057571165 0.111215174
000320 e0 6c 96 be c0 a4 10 be 26 b8 a6 3e 68 e0 16 3e
       -0.2937994 -0.14125347 0.3256237 0.14734042
000330 02 a9 3f bd 08 b7 5e be 55 7e 65 be fd ff 8e be
       -0.046792038 -0.21749508 -0.22411473 -0.2792968
000340 df 90 e1 bd fd a9 e3 3d 3d 1a 6c 3e bb 76 27 3e
       -0.1101396 0.11116407 0.23056884 0.16353886
000350 86 ff 9b be 9b 65 68 be 56 c0 6d bd 04 74 a2 3e
       -0.30468386 -0.2269501 -0.058044754 0.31729138
000360 96 d2 21 3d cd a8 a6 bd 4a 88 1f 3e 3b 1a 02 be
       0.03950747 -0.08137665 0.15579334 -0.12705319
000370 c4 41 49 be 28 ca 8f 3e cd 82 39 be c4 a6 ad bd
       -0.19653994 0.2808392 -0.18116303 -0.08479074
000380 2a ac b7 be 7a 96 78 3e 08 8e 84 3e f0 83 07 3e
       -0.35873538 0.24276152 0.2588961 0.13233924
000390 85 fe 74 be 86 cd aa be f2 39 8a be 54 7d 80 3e
       -0.23925216 -0.33359927 -0.26997334 0.25095618
0003a0 67 94 12 3e 77 54 8b 3e 29 62 44 3e 27 07 92 3d
       0.14314424 0.2721288 0.1917807 0.071302705
0003b0 43 e8 fa 3a 0d e7 87 be 4d 77 97 be f7 a7 9f be
       0.0019142706 -0.26543465 -0.29583207 -0.31182835
0003c0 a8 bd 17 3e e4 06 27 be 66 f5 79 bd 98 4a 50 be
       0.14818442 -0.16311222 -0.061025046 -0.20340955
0003d0 7b ac 39 bd 13 b2 7c be 5b 96 73 be fd 5a 1c 3e
       -0.045330506 -0.24677305 -0.23787825 0.15269084
0003e0 b2 f7 d6 bd ab 9d 51 3e fc 5e ff bd 07 26 7c be
       -0.10496463 0.20470302 -0.12469289 -0.24623881
0003f0 6e d1 80 bd df 2d 1f be 4d eb b8 bd 62 f1 a0 be
       -0.062899455 -0.15544842 -0.09029255 -0.3143416

linear1.bias f4 [128]
000000 b6 07 e9 3d e5 fc c3 3d 18 53 1d be 63 b3 65 3d
       0.11378424 0.0956972 -0.15363729 0.05607928
000010 de 81 af 3e 07 47 82 3e d2 5b 68 be 77 20 a5 3e
       0.34278768 0.25444815 -0.22691277 0.3225133
000020 41 a6 39 3d 4a b9 44 3e 7e 2c 80 3e 49 11 a3 3e
       0.045324568 0.19211307 0.25033945 0.31849125
000030 a2 a8 66 be e8 30 9d 3e 7a ef 41 be 4c 3e 37 3d
       -0.22525266 0.30701375 -0.1893901 0.044737145
000040 bd 16 58 be 2d 78 51 bd ec b9 01 bc b9 39 34 bc
       -0.21102424 -0.05114 -0.007917862 -0.01100009
000050 51 5e d8 bc 1a 36 4c 3d cb df bb 3e 76 66 56 3e
       -0.026412161 0.049856283 0.36694178 0.20937523
000060 f3 f2 5d 3e 9b 92 06 3e 60 47 78 3e 0d 9c 8d 3c
       0.21674709 0.13141863 0.24245977 0.017286325
000070 d1 22 f8 3c f6 2e ca 3d 22 4d 86 be 28 7b 80 be
       0.03029004 0.09872238 -0.26230723 -0.2509396
000080 f6 c1 36 3d 3d 6d d4 bd ed bc fb 3c 7a 89 73 bd
       0.04461857 -0.10372398 0.030729735 -0.05945728
000090 ed a9 69 3d 53 0e 80 3e f9 0b ca bd f2 55 99 3e
       0.05704682 0.2501093 -0.09865565 0.29948384
0000a0 dd 39 97 3e 9f c0 7d be 18 4a 7a be bb e0 75 be
       0.29536334 -0.2478051 -0.24442327 -0.24011509
0000b0 35 e3 1d be d5 65 ed bd 99 0f be bc da 7b 92 bd
       -0.15418704 -0.115916885 -0.023200797 -0.07152529
0000c0 e5 c9 07 be 4f d2 cb bd ad 0c ea bd 7e 74 b1 3e
       -0.1326061 -0.099522226 -0.11428199 0.3465919
0000d0 40 7a c6 bd 59 2c 6e be 2f 64 25 3e c0 73 95 bb
       -0.09691286 -0.23259105 0.16151498 -0.0045609176
0000e0 0c 38 8b 3e 37 b9 6c 3e b7 85 ab 3e 57 7a 66 be
       0.27191198 0.23117529 0.33500454 -0.22507606
0000f0 35 6d 77 3e 63 45 a3 3e 14 bc 0f be 11 20 a4 3e
       0.24162753 0.31888875 -0.1403659 0.32055715
000100 25 83 91 3e 9d d5 a5 3a 71 d4 42 3e a1 a6 d1 bd
       0.28420368 0.0012652163 0.19026352 -0.1023686
000110 ef 24 8d be a1 5a ad 3d 93 40 01 3e d6 eb 54 be
       -0.2756724 0.08464552 0.1262229 -0.2079309
000120 3c b6 3c 3e 09 40 88 be 98 1f 9d 3e f9 d2 b8 3e
       0.18428892 -0.26611355 0.30688167 0.3609846
000130 d6 76 d7 3d fa fc 44 be 2a ef 40 3e 6d 1c c9 3d
       0.10520713 -0.19237128 0.18841234 0.09819875
000140 5e 1b e1 3d e2 ef 10 3e 0c 94 8f 3e a6 5c f3 bd
       0.10991548 0.14154008 0.28042638 -0.11882906
000150 37 a2 6e bd b6 8d ed 3d 3a a1 3d 3d 34 d4 8c 3e
       -0.05826017 0.11599295 0.046296336 0.27505648
000160 86 71 27 be 52 c0 49 b8 a2 e8 ac 3d b7 82 9d bd
       -0.163519 -4.8101247e-05 0.08442809 -0.076909475
000170 1a 10 7d 3e 93 c4 3e 3d a8 14 95 be 2b 4d 89 ba
       0.24713174 0.046574187 -0.29117322 -0.0010475268
000180 88 2b 0d be 5b f9 36 3d eb 7f 1f bc 36 06 a0 be
       -0.13786137 0.044671398 -0.009735088 -0.3125474
000190 0c 1f 4b bd 97 a0 b0 bb ca 8e ae bd e6 cc a4 3e
       -0.049590155 -0.0053902376 -0.085233286 0.32187575
0001a0 0f 11 65 bd b4 b9 71 3e 7d 3f e1 3d f0 0f 89 be
       -0.05592447 0.23605996 0.109984376 -0.26769972
0001b0 44 d2 99 3d b0 a0 95 3e 36 10 50 be 10 08 4c be
       0.07510808 0.29224157 -0.20318684 -0.1992495
0001c0 ed 45 b6 3e 3a 00 97 3e bc 22 31 be 53 1e 57 3e
       0.35600224 0.2949236 -0.17298406 0.21007662
0001d0 73 13 b4 bc 32 57 9a be f5 7c 0c 3d 1e cd f9 3d
       -0.02198193 -0.3014465 0.034298856 0.12197326
0001e0 ed fe a1 bd b0 ff 0c 3e 50 21 87 be 1b 73 6b 3e
       -0.07909951 0.13769412 -0.26392603 0.22993128
0001f0 dd 92 94 3e a4 6a 5d 3e 54 68 64 3d 71 09 fd 3d
       0.29018298 0.21622711 0.055763558 0.123553164

linear2.weight f4 [256, 128]
000000 d1 8c 8f bd ec b0 ac bc c0 6e c5 bb 43 49 4b bd
       -0.070092805 -0.021080457 -0.0060251653 -0.049630415
000010 5b 67 8f bd d0 3d 66 3d 54 cc 68 3d 00 a0 a9 bd
       -0.07002135 0.056211293 0.056835487 -0.08282471
000020 50 09 cf 3c 23 79 10 3d c5 37 a2 3d a2 db 42 3d
       0.025272995 0.035271775 0.079207934 0.04757274
000030 a6 cb a0 3d c6 f6 fc bc 7b b0 83 3d f3 0d 92 3d
       0.07851343 -0.03087939 0.06430145 0.07131567
000040 7d e7 b4 bd 8c c9 8c bd 15 0d 6f 3c b2 1c 36 3d
       -0.088332154 -0.068743795 0.014590521 0.04446096
000050 43 fd 3c bd dc a4 0f 3c 79 c9 8b bb 44 54 a5 3c
       -0.046139967 0.008767333 -0.004265961 0.020181783
000060 c8 c0 54 bd ee 60 33 3d 4b 69 53 3d 1b 3f 7c bd
       -0.051941663 0.04379361 0.051614087 -0.06158362
000070 16 44 91 ba c3 30 e6 ba d4 eb d8 3c 54 93 ae 3d
       -0.0011082913 -0.001756214 0.02647964 0.08524194
000080 23 7b 94 3c 6d 6f 8a bc a9 a5 a1 3d af f5 1c bd
       0.018125122 -0.016898835 0.07892925 -0.03832024
000090 ea c9 d9 bc 89 32 8b 3b 27 68 85 bd e5 c4 88 3b
       -0.026585538 0.0042479676 -0.06514006 0.0041738623
0000a0 54 77 7e bd b4 91 79 3b 93 79 f9 3b 5b f9 1c 3c
       -0.06212552 0.003808123 0.0076133697 0.009580935
0000b0 1a c9 97 bd 69 8d a7 bd 54 73 11 3d e8 9c 8c 3d
       -0.07411404 -0.08181269 0.035510376 0.06865865
0000c0 74 1f a5 bd 92 f7 f3 3c 47 3e 84 bd df bf c1 3a
       -0.0806264 0.029781137 -0.06457191 0.0014781913
0000d0 b0 2f a1 3d 7b bc 87 3d cc 2d 8c bd f3 ff 4b 3d
       0.07870424 0.06627747 -0.068446726 0.04980464
0000e0 c0 9a 22 3d 98 8b 9b ba 36 2b a7 3d 1d e5 16 bd
       0.039698362 -0.0011867164 0.08162539 -0.036839593
0000f0 50 87 9c bc a7 e8 41 bd 54 ce c1 3b e6 d0 ad 3c
       -0.01910749 -0.047341015 0.005914489 0.021217775
000100 8d ed 5b 3b ab 83 50 bd e4 b4 22 bd 01 1d f4 3c
       0.003355834 -0.05090682 -0.039723292 0.029798986
000110 0c 73 9e bd ed 10 6b bc a3 f4 96 bb 9d 06 17 bd
       -0.07736787 -0.014347297 -0.0046067997 -0.03687154
000120 1e e7 f7 3c 33 0f 6c 3b 23 c7 6b 3d c6 be 5d bc
       0.030261572 0.0036019802 0.05756296 -0.013534253
000130 75 42 77 bd bf d4 77 3d ab c6 39 3c 24 86 df bc
       -0.060366113 0.060505625 0.01133887 -0.027285643
000140 1a b3 81 bd b7 7b 8c 3c c1 14 b7 bd 11 3a ea 3c
       -0.06332989 0.017148836 -0.08939505 0.028592141
000150 3b ff 24 3d 4f b6 a3 bd d1 0f 6d bd 7a 75 85 bd
       0.04028247 -0.07993757 -0.05787641 -0.065165475
000160 62 2f 92 3d 1e e4 94 3d c2 c2 f2 3b 1a 9b 9c 3d
       0.07137944 0.072700724 0.007408471 0.07646771
000170 3b 9c 11 bd ce c9 ba bd 09 4e 01 3d 03 c7 06 3d
       -0.035549384 -0.091205224 0.03156856 0.032904636
000180 24 04 ae 3d a5 71 d3 ba 75 d5 83 3d 1b 76 5b 3d
       0.084968835 -0.0016131891 0.06437198 0.05357943
000190 80 6b 6c 3d ea dd b6 bd 3e ea 94 3d 01 2b a8 bd
       0.057719707 -0.089290455 0.07271241 -0.08211327
0001a0 a1 6e 9a 3d 9e 2e f4 bb 0c fc a7 bd 90 71 c9 3c
       0.07540632 -0.0074518463 -0.08202371 0.024590284
0001b0 8c 09 a6 bc 24 23 ac bd 40 94 fe bc 04 83 2e 3c
       -0.020268224 -0.0840514 -0.03107655 0.010651354
0001c0 f2 18 85 3d 3a bb 06 bd 48 22 46 3d da 50 8f 3b
       0.064988986 -0.032893397 0.048372537 0.004373652
0001d0 95 45 58 3b fe e1 98 3c d2 80 82 bd 8a 1b a4 bd
       0.0033000458 0.018662449 -0.06372227 -0.08013065
0001e0 16 48 d7 bc 6e 7b a9 bd 21 2b 2d bd c7 f6 bb ba
       -0.02627949 -0.082754955 -0.04227746 -0.0014340513
0001f0 13 ca 80 bd 2a 4f 26 bd d0 3c aa bc 81 e2 3f bc
       -0.062885426 -0.04060284 -0.02078095 -0.011711718
000200 63 9e 6c bd 34 e1 a3 3c fd 3b 03 bc 54 b9 ca 3c
       -0.057768237 0.020004846 -0.008009908 0.024746574
000210 83 14 9f 3c 98 c9 05 bd 8e 41 10 bb 13 e7 0a 3b
       0.01941896 -0.032662958 -0.002201173 0.002119486
000220 76 22 79 bd 50 ba 7e 3c 1b 4c fb 3a a0 ca 28 3d
       -0.06082388 0.01554735 0.0019172461 0.041208863
000230 27 d1 29 3d 47 9b 9d 3d 26 3f 0c 3c 9e 8c 84 bd
       0.04145923 0.076956324 0.008559978 -0.06472133
000240 8a 8c 90 3d 0a 23 47 bd a8 55 6b bc 16 57 81 bc
       0.07058056 -0.0486174 -0.014363684 -0.015788596
000250 34 81 ae bb d1 e6 46 bc 8f 7b ce 3d 65 ba 85 3d
       -0.005325461 -0.012139992 0.10082161 0.065296926
000260 b2 50 cb 3c fc 29 a9 3d aa 2e 96 bd b4 c0 56 3d
       0.024818752 0.08259961 -0.07333119 0.05242987
000270 a2 1e 97 3d 31 c3 c7 3d fa 0f 8c bd e9 68 0b 3d
       0.073788896 0.09754027 -0.06838985 0.034035597
000280 c1 5f 45 bd e6 bb 3d bc 13 71 5b bc 71 8f 77 bd
       -0.04818702 -0.011580443 -0.013393658 -0.06043953
000290 31 65 95 bd 8c d7 e3 bc 49 80 5d 3d e9 05 3b 3d
       -0.07294691 -0.027812742 0.05407742 0.045659933
0002a0 9d 59 6e bd e1 f7 e5 bc 84 a8 cc 3b d0 35 8d bd
       -0.05819093 -0.0280723 0.0062456746 -0.068950295
0002b0 bd e7 80 3d 82 2e b5 3d d9 7d 35 3c 39 a5 96 bd
       0.062942006 0.08846761 0.011077368 -0.073557325
0002c0 6b 0e 0b 3d b2 80 1e 3d 7a d6 97 3d 24 e7 2b bd
       0.033949297 0.038696952 0.07413955 -0.04196848
0002d0 64 57 8c bd 80 67 6e 3d 3c c9 41 3c 1a 13 07 bd
       -0.06852606 0.058204174 0.011827763 -0.0329772
0002e0 e2 07 fb bc 14 b6 4a bd 2f d1 b6 3d 61 ab 09 3b
       -0.030643407 -0.04949005 0.08926617 0.002100669
0002f0 d5 c2 ad 3d 98 b9 bd 3d 5e cf f9 3c 07 98 c9 3c
       0.08484427 0.09263915 0.030494388 0.024608625
000300 a3 5d 8c 3c 86 75 85 3d 3f a3 7a bd 5a d1 4b 3d
       0.017134493 0.065165564 -0.06119084 0.0497602
000310 d4 51 a9 b6 0f 9c 0f 3d b3 b0 42 3c 91 4d a1 bb
       -5.0461185e-06 0.03506094 0.011882949 -0.0049225767
000320 87 00 4a 3c 3f 7a 98 3d f5 18 4c bd 48 5f 63 bd
       0.012329227 0.074451916 -0.04982849 -0.05551079
000330 01 63 8f bc d5 a8 d5 bb b6 df 2a 3d 97 8e 90 3d
       -0.017503263 -0.0065203705 0.041717254 0.07058447
000340 c2 a9 d8 3b 8a c8 e7 3d d0 cd 0e bd 20 b1 d4 bc
       0.0066120336 0.11317547 -0.034864247 -0.025963366
000350 96 9d e0 bc e9 b9 18 bd 2c 1c 33 bd a7 4e 8b bd
       -0.027418893 -0.037286673 -0.04372804 -0.06802111
000360 85 1c a5 bd d7 f7 bf 3c f1 ff b9 3d 47 28 a7 3d
       -0.0806208 0.023433609 0.0908202 0.08161979
000370 77 4d 91 3d 76 5f 28 bc e3 62 b2 3c 7c 97 2d bd
       0.07094853 -0.010276666 0.021775668 -0.042380795
000380 0e 28 54 3d ab 81 b9 bd 42 52 73 3d 4b 89 fa 3c
       0.05179601 -0.09057935 0.05940462 0.030583045
000390 c5 5f ad 3c 14 31 05 3d e9 59 13 bd 9e 05 a2 3d
       0.02116383 0.032517508 -0.035974417 0.07911228
0003a0 de c4 5e 3d 79 60 84 3d 52 08 a2 3c ba 11 7a 3d
       0.054386966 0.06463713 0.019779358 0.06105206
0003b0 00 3e 6e 3d 52 38 79 3d 20 10 cc 3d 73 b7 93 3c
       0.058164597 0.060844727 0.09964013 0.018031811
0003c0 cd 76 88 3d 61 d5 ea 3c 01 d2 85 3d 3a e8 c6 3d
       0.066632845 0.0286662 0.06534196 0.097122625
0003d0 bc 25 4d 3d fb de 9b bc e8 b2 80 bc 1a 5b 3e 3d
       0.050084814 -0.019027224 -0.01571031 0.0464736
0003e0 12 55 07 3d 14 bb 07 bc 9b ec 75 3d 24 43 55 3d
       0.033040114 -0.008284349 0.060040098 0.052065983
0003f0 44 4f 2e bd 11 1a ec 3c 88 9b 72 bc 12 f3 5e bd
       -0.042556062 0.028821023 -0.014807589 -0.05443103

linear2.bias f4 [256]
000000 fb f1 a7 bd d5 c4 92 3d e2 d8 4c bd 4a 32 3a bd
       -0.08200451 0.07166449 -0.050011523 -0.045458116
000010 15 2b b8 3c 34 a9 a0 bd f0 8a 41 bc 30 72 15 3c
       0.02248148 -0.07844773 -0.01181291 0.009121463
000020 da 9c 06 bc 06 cd 84 bd 94 0a b5 bc 98 7f 82 3d
       -0.008216107 -0.064844176 -0.02209977 0.06371993
000030 98 a2 52 bd ec be 62 3d 71 e3 94 3d b3 20 58 3c
       -0.051424593 0.05535786 0.072699435 0.01319139
000040 47 1d 91 3d 8a b7 6c bd 2b a6 93 bd 8d 5b 98 3d
       0.07085662 -0.057792224 -0.072094284 0.07439337
000050 4d 0b 80 3d 55 48 88 3c 74 fd 32 bd 03 54 1c bd
       0.062521555 0.016636053 -0.043698743 -0.038166057
000060 01 bd 96 3d 61 bc db 3d 7f 43 91 bd 17 77 61 3d
       0.073602684 0.1072929 -0.07092952 0.055045214
000070 12 b6 17 bd 36 aa a0 bc d3 9b b9 3c d5 d4 3d bd
       -0.03703887 -0.019612413 0.02265731 -0.04634555
000080 d4 8d 3c 3c b7 f2 84 bc 97 69 b5 3d d1 8e 3e bd
       0.011508424 -0.016229017 0.0885803 -0.04652292
000090 16 1e 84 bd 8c a2 05 3c bb a2 e5 3d 7a 46 91 3d
       -0.06451051 0.00815643 0.11212679 0.070935205
0000a0 ab 61 14 3d 2e 54 95 bd a3 cb 59 3d b9 5c b4 bc
       0.036225956 -0.072914466 0.05317272 -0.02201687
0000b0 b3 59 76 bd 4a 56 60 3b 60 d8 9a bd 22 10 23 bd
       -0.060144138 0.003423112 -0.075608015 -0.039810307
0000c0 67 b4 23 3d 37 fe 9a 3d 10 66 8f bd 4c d2 10 3d
       0.039966967 0.07568019 -0.07001889 0.035356805
0000d0 eb fc b0 3c e3 c4 14 bd c6 db 93 bc 0c 07 72 bd
       0.021604976 -0.03632058 -0.018049132 -0.05908875
0000e0 26 c4 27 bd 9f 33 be 3d 75 3b 99 3d 7e fb e7 3c
       -0.040958546 0.0928719 0.07482044 0.028318163
0000f0 f0 b7 b3 bc 4a 56 1d bd 4c 0a 22 3d 07 41 a4 bd
       -0.021938294 -0.03841237 0.0395606 -0.080202155
000100 4b b1 30 bd 1f ad 91 3d 10 c6 b0 3d 13 d4 7a 3b
       -0.04313783 0.07113098 0.086315274 0.0038273379
000110 41 1d 12 bd 49 67 6e 3d 47 15 8e 3d 61 6d b1 bd
       -0.03567243 0.05820397 0.06937652 -0.086634405
000120 42 d7 83 bc de b2 58 bd 89 2d 25 3b 9e 85 8d 3d
       -0.016093854 -0.052904956 0.0025204143 0.06910251
000130 40 c4 93 bd ee 6e 89 bd 88 0c 8c 3b 7f e6 e5 3c
       -0.07215166 -0.06710611 0.004273955 0.02806401
000140 3f 00 cf 3d 58 a0 0b 3d 84 f7 b5 3d ea 1a 9d 3d
       0.10107469 0.034088463 0.088851005 0.07671149
000150 f3 65 50 3d 7e df 55 bd fc b3 0a bd 72 81 43 3d
       0.050878476 -0.052215092 -0.033863053 0.04773087
000160 60 2f 5f bb 2d e7 9d bd 4d 24 af 3c e2 f8 90 bd
       -0.0034055337 -0.07710109 0.021379614 -0.07078721
000170 55 e8 12 3d 74 78 b3 3d a0 6d 90 3d cb 2d a2 3a
       0.0358661 0.08763209 0.07052159 0.0012373267
000180 5c 1e 27 3d e5 f6 f7 3c b9 b5 2e bd 85 00 0d bd
       0.040800437 0.030269096 -0.042653773 -0.034424324
000190 9d 63 da 3d 17 cb 8e bd 27 03 13 3d a8 e5 66 bc
       0.10663531 -0.0697233 0.03589168 -0.01409284
0001a0 4c e9 4e 3d 60 a3 42 bd 36 88 73 3d 58 99 5a bd
       0.050515458 -0.047519088 0.059456073 -0.053368896
0001b0 1f bb 3f bd dd 2c ae 3d b6 df a8 3a 59 e6 ad 3d
       -0.046809312 0.08504651 0.0012884054 0.08491201
0001c0 e2 72 75 bd 3e 7d 75 3d 90 30 47 3b 40 5e c3 3d
       -0.059924014 0.059933893 0.0030393936 0.09539461
0001d0 be 23 57 bc bf c9 9d 3c 2b 11 3f 3c 7e 34 3e bd
       -0.01313108 0.01926124 0.011661808 -0.04643678
0001e0 f8 78 22 3d 2e 29 78 bd 18 35 4d 3d c8 a6 c7 3d
       0.039666146 -0.060586147 0.050099462 0.09748608
0001f0 f7 dc a6 bc f4 b4 44 bc 13 1b 2e 3d 4a 30 e2 3b
       -0.020369036 -0.012006033 0.04250629 0.006902729
000200 99 f2 a7 bb 86 65 37 bc b9 53 84 3d 34 8c 39 bb
       -0.0051253554 -0.011193639 0.06461281 -0.0028312327
000210 0b bf d6 3d fe ae 85 3d b0 df 7f 3d db 4d bb 3c
       0.10485657 0.06527518 0.062469184 0.022864273
000220 b8 df fc bc 46 ef 4e bd e1 0f ba 3d 46 25 32 bd
       -0.030868396 -0.050521158 0.0908506 -0.043492578
000230 42 04 97 3c ad 4e 4a bd 0c f9 97 bd 99 92 fe 3a
       0.018434647 -0.049391437 -0.07420549 0.0019422352
000240 6e 41 1b bd 1e 0c 97 bd 3b ac 40 bd 1a 40 a6 3d
       -0.037904195 -0.07375358 -0.04703925 0.08117695
000250 17 1a 40 3c 53 51 75 3c e5 e9 e0 bc 0b 39 f9 bc
       0.01172497 0.0149730025 -0.02745528 -0.030422708
000260 fc a8 59 3d 2d b2 88 3d 15 14 a2 3b 0b 37 90 bd
       0.05313967 0.06674609 0.0049462416 -0.070417486
000270 b0 52 b6 3d 25 d3 1e bd f4 d9 40 bd 14 70 88 3d
       0.0890249 -0.038775582 -0.047082856 0.06662002
000280 9c 92 54 3d f3 1d 5f bc 59 ac 97 3d ee f4 2e 3d
       0.05189763 -0.01361798 0.074059196 0.042714052
000290 63 90 b8 3d c0 53 a8 3d f7 3d ea 3c 24 5b b2 3d
       0.090119146 0.08219099 0.028594 0.0870879
0002a0 e2 91 8f bd b0 ea 68 bd c4 1b 62 bd 17 6d 30 3b
       -0.07010247 -0.05686444 -0.05520226 0.0026920491
0002b0 66 70 95 3d e8 39 9e 3c ba 3c 7c bb 33 ce 43 bc
       0.07296829 0.019314721 -0.0038488344 -0.011951017
0002c0 17 7b 16 bd 6a 0a c1 bc 06 e2 a5 3d a3 45 48 bd
       -0.03673848 -0.023564536 0.08099751 -0.048894536
0002d0 fd f4 a8 3c 40 a7 99 3c 33 5f aa 3d ec 1d 86 bc
       0.020624632 0.018756509 0.08318939 -0.01637169
0002e0 21 4c 91 bc 72 03 5f bd 32 af 0d bc ad 61 c0 bc
       -0.017736496 -0.054446645 -0.008647727 -0.023484075
0002f0 bf d7 13 bd 68 08 b3 3b 15 93 11 3d 0e 1f 3a 3d
       -0.036094423 0.0054636486 0.03554066 0.045439772
000300 ac a0 d1 3c 7f be 5f bd af bd 93 bd 58 01 ab bd
       0.02558931 -0.05462503 -0.07213914 -0.08349866
000310 8d fd 2c bc ce cb be 3c 4e 86 a7 3d 4a ba d1 3d
       -0.010558498 0.023290541 0.081799135 0.1024061
000320 33 9f cd 3d 0d 77 b5 3d 0d 9b a3 3d da 5c 2d bc
       0.100401305 0.08860598 0.07988558 -0.01058122
000330 5d 19 51 3d f2 7b 9d bb 2a f7 5a bd 1d e7 10 3d
       0.05104958 -0.004806035 -0.05345837 0.035376657
000340 af f4 a6 3d 67 18 07 bd c0 df e3 3d 0a 61 6d bd
       0.081521384 -0.032982256 0.11126661 -0.05795387
000350 20 77 93 bd c6 90 69 3d 83 15 5a bd dc 11 33 3d
       -0.07200456 0.057022832 -0.05324317 0.043718204
000360 05 af 14 3d 57 37 81 3d d1 0d 0e bd b7 9e a1 bd
       0.036299724 0.06309383 -0.034681145 -0.078916006
000370 db 8a c4 3d 01 ac 4d bc 51 0b 96 3d 2d 53 a1 3c
       0.09596797 -0.012553216 0.07326377 0.019692982
000380 40 7d e6 bc 0e cb 9b bd f0 23 8d 3d 6d 2c b6 bd
       -0.028135896 -0.07607089 0.0689162 -0.08895192
000390 24 4b 1d bd 8d 3e ad 3d 58 1f c9 3c 3e 0e 9e bb
       -0.038401738 0.08459196 0.024551079 -0.004823475
0003a0 cf 9d 32 bd d9 aa b8 bd b6 59 62 bc f6 38 76 3d
       -0.04360753 -0.090169616 -0.013815334 0.060112916
0003b0 12 8d 3d 3d fc 38 64 3d 7d 5e b3 3d 13 e8 f4 3b
       0.046277113 0.055718407 0.087582566 0.0074739545
0003c0 ba af 0f bc 6b 30 70 bd 32 ce aa 3c 56 b2 70 3d
       -0.008769924 -0.058639925 0.020850275 0.058763824
0003d0 b0 26 de 3c eb 9e 96 3d 2b 02 ae 3d 51 1e 18 3d
       0.027118057 0.0735453 0.08496507 0.037138287
0003e0 fa 86 b4 bd d9 cb 41 bd c5 f3 3f 3d b8 10 96 3d
       -0.08814807 -0.047313545 0.046863336 0.073274076
0003f0 29 e9 4a 3c b1 9b 1b bd 63 00 b8 3c f8 26 ba 3b
       0.012384691 -0.037990276 0.022461122 0.005680915

linear3.weight f4 [9, 256]
000000 02 04 bf bc 78 2c 29 3d c5 ff 5d 3b c5 bc 67 3d
       -0.02331734 0.041302174 0.0033874374 0.05657651
000010 b0 7b 0e bd 9e 54 11 3d ef fb 74 bc 10 98 5e bd
       -0.034785926 0.035481088 -0.014952644 -0.054344237
000020 74 84 ce 3c 94 ce 95 bd bc 2c 97 bc e0 88 c8 ba
       0.025209643 -0.07314792 -0.018453948 -0.0015299581
000030 da fd 84 bc e0 71 36 bd 9f 73 1c bd 0d 2d 0c 3d
       -0.016234327 -0.044542193 -0.038196202 0.03422265
000040 c1 e4 d5 bc bc d7 f9 bc 97 48 cf bc f1 e2 6f bd
       -0.026110055 -0.030498378 -0.025303168 -0.058566038
000050 6a 59 33 3d c6 7f 91 bd 0d d8 09 bd 17 4c 1a 3c
       0.043786444 -0.07104449 -0.033653308 0.009417555
000060 8b 80 39 3d 55 21 7f bd 03 9e 31 3b 32 be 83 bd
       0.045288604 -0.062287647 0.002710224 -0.06432761
000070 70 21 ef 3c 63 12 32 3d 23 e1 2f 3c 61 f2 65 bd
       0.029190749 0.043474566 0.010734829 -0.056139354
000080 9a c4 93 bd e5 b9 64 bd 9a b0 2a bd f1 21 f9 3c
       -0.07215233 -0.055841345 -0.041672327 0.030411692
000090 83 dd 33 bb eb 17 46 3d 32 28 aa bd 02 28 39 bb
       -0.0027445264 0.048362654 -0.08308448 -0.0028252606
0000a0 3e 70 71 bd cf 73 b5 bd e2 4a 69 bd 74 80 a5 3c
       -0.058944933 -0.08859979 -0.05695618 0.020202853
0000b0 4a 29 8a bd 61 b5 91 bc f0 f3 ff bc fb c0 17 bd
       -0.067461565 -0.017786684 -0.031244248 -0.037049275
0000c0 db c5 4d 3d f8 bf e0 bc 29 02 98 bd 77 a9 33 3d
       0.050237518 -0.027435288 -0.07422287 0.043862786
0000d0 0a af 7b bd 45 57 57 bc 18 ac 71 bd 96 2b 41 3c
       -0.061446227 -0.013143365 -0.059002012 0.011790177
0000e0 a1 2f cc 3c 8b 33 cc bc 47 ea fe bc 41 f0 4b bd
       0.024925055 -0.024926921 -0.031117572 -0.04978967
0000f0 12 0b 54 bd bf 96 f8 3c 1c 3e 52 bd 60 35 0c bd
       -0.05176837 0.030345319 -0.051328763 -0.03423059
000100 02 a5 0b 3d 2f 72 aa bd 8c 9f 80 bc 55 0f 24 bd
       0.03409291 -0.0832256 -0.015701078 -0.040053684
000110 45 d9 e1 3c db ab 12 bd 2d b6 0c 3d c4 0e 95 3c
       0.027569422 -0.035808425 0.034353424 0.018195517
000120 c4 87 21 bd cc 24 8c 3b b5 53 fd 39 c1 93 a6 bb
       -0.039436117 0.0042768475 0.00048318287 -0.0050835316
000130 e4 f7 08 bd fe 1b fb 3c 94 c0 f9 39 d5 8c d6 ba
       -0.033439532 0.030652996 0.00047636463 -0.0016368876
000140 a6 b4 40 bd 98 0c 82 3d 0f f9 86 bd ec 78 ff 3c
       -0.04704728 0.06350058 -0.06590473 0.03118559
000150 82 99 5c bd 09 db 75 bd f3 c1 aa 3c 71 f9 35 3c
       -0.053857334 -0.06002334 0.020844435 0.011106835
000160 ec 3e 31 bd 19 c1 8e 3c 47 f5 15 bb c5 3e 9d 3c
       -0.043272898 0.01742606 -0.0022881792 0.01919497
000170 05 1e 8c bd 4f 59 c9 3c 16 1b 9b bc 5c 22 10 3d
       -0.06841663 0.024578718 -0.018933814 0.035189018
000180 11 1d 87 bd 3a e7 89 b9 32 68 ae bc 2f d7 b4 3b
       -0.06597341 -0.00026302953 -0.021289919 0.005518816
000190 5c 85 7f bd 0c 8b 69 bd 86 a6 94 3c 94 89 97 bc
       -0.06238304 -0.05701737 0.01814581 -0.01849822
0001a0 d2 d3 97 bd f7 dd 39 bd db a7 83 bd c4 62 7c 3c
       -0.074134484 -0.045377698 -0.064285 0.015404407
0001b0 27 c5 b0 3c e3 9d 38 bd 8b 4e 2c 3d 5a 6e 0e 3d
       0.021578385 -0.045072448 0.042067092 0.03477321
0001c0 c4 bb 4c 3c d8 e3 87 bd cb bb 44 bd 07 1a 1b bd
       0.012495939 -0.066352546 -0.048030656 -0.03786662
0001d0 d9 50 40 bd 6f 68 d9 3b e2 ad b5 3c 89 d5 57 3d
       -0.046952102 0.006634764 0.02217764 0.052693877
0001e0 92 16 71 bd f8 1f 12 bd d7 b3 d5 39 4d 41 b9 bc
       -0.058859415 -0.03567502 0.00040760517 -0.022614146
0001f0 12 de f9 3c bd 21 5e bd 17 8b ec 3b b5 95 5e bb
       0.0305014 -0.054231394 0.0072187292 -0.0033963744
000200 20 a5 59 3d d1 0a 11 bd 3a 0b c6 3c ef 5e 16 3a
       0.05313599 -0.035410706 0.024175275 0.0005736192
000210 63 84 5c bd 30 23 61 bd fb b1 2a 3d 4f 2f 2a bd
       -0.05383719 -0.054965198 0.04167364 -0.041549023
000220 9f 10 54 3d 84 3d 1d 3b fc 64 8e bb f0 a2 e3 3c
       0.051773664 0.0023992965 -0.0043455344 0.027787656
000230 7b 2d fb bc 26 79 35 bd 6c bd 83 3c e0 22 31 3c
       -0.030661335 -0.04430499 0.016081534 0.0108115375
000240 49 8b ed 3c bf c6 32 3d 34 c1 47 3d cb fa 30 3d
       0.02899708 0.04364657 0.048768237 0.043207925
000250 dc 68 76 bc 62 a5 59 bd fb d9 26 bd 91 ce 86 bb
       -0.015039649 -0.053136237 -0.040735226 -0.00411398
000260 20 fc d3 3b 25 e6 04 bd 18 49 9d bc f3 25 21 3d
       0.0064692646 -0.032446045 -0.019199893 0.03934283
000270 b1 41 66 bd 0a 0c 58 bc e3 bd 16 3c 66 8b 8a 3b
       -0.056214992 -0.013186464 0.009200546 0.0042280434
000280 a3 da 93 bb ad 5e 80 3d c4 d8 16 3d ee e8 b4 3c
       -0.0045121475 0.06268058 0.036827818 0.022083726
000290 56 f5 15 bd 3b df 8b bd e1 7f 3a 3d 24 d5 54 bd
       -0.036610924 -0.06829687 0.04553211 -0.05196108
0002a0 74 be 47 bd 19 bf 13 bd 82 7b a5 bc 35 37 83 3c
       -0.048765615 -0.036070917 -0.020200495 0.016017536
0002b0 f2 e6 90 3c 05 19 94 39 d0 ce 86 bd 4c 9a 96 3c
       0.017688248 0.000282474 -0.06582415 0.018384121
0002c0 ed 1e 02 bd a4 98 e4 3c 7e c8 6a bd ef 4f 5c 3c
       -0.031767774 0.027904816 -0.05732011 0.013446792
0002d0 1a e1 80 bd 32 9c 10 3d e5 53 cb 3c 9c ca cf bc
       -0.06292935 0.03530521 0.024820277 -0.025365166
0002e0 3a 28 7d bc 01 8b 08 bb bf 4d 60 bd 1d 85 90 bd
       -0.015451485 -0.0020834806 -0.054761644 -0.07056639
0002f0 9e f1 8b bc 1a 7d c9 3c fb 4e eb 3c f9 bb 76 3c
       -0.017082985 0.024595786 0.028724184 0.015059465
000300 b6 1d 35 3d 75 95 af 3c 51 9c 0e bd cb 0b 31 3c
       0.044217788 0.021433571 -0.034817044 0.010806034
000310 57 c8 e1 bc b4 52 d3 bc f6 2a 60 bd 27 e8 b0 3c
       -0.02756135 -0.025796272 -0.05472847 0.021595074
000320 0c 71 3b bd 00 b6 bc 3c 92 79 04 3d a2 b9 7f 3c
       -0.045762107 0.023036003 0.0323425 0.015608223
000330 80 09 ff 3c 11 04 18 3c de c5 a0 bc 7f 3d ce 3c
       0.03113246 0.009278313 -0.0196256 0.025175808
000340 6e c3 37 3d 6e c0 6d 3c d7 5d 85 bd b9 e1 99 3c
       0.04486411 0.014511211 -0.06512039 0.01878439
000350 64 ef 7c bc d5 d4 50 3d 4d d7 1b bd 8f 49 14 bd
       -0.015437935 0.050984222 -0.038047124 -0.036202963
000360 1f 93 90 3c f8 e1 8d bd 71 8e d5 39 23 3b 36 3d
       0.017648278 -0.06927866 0.00040732653 0.04448999
000370 a0 5e c8 bc 21 e0 62 bd db 77 a7 bd 17 42 8d bd
       -0.024459183 -0.055389527 -0.081771575 -0.06897371
000380 96 69 6c bd 25 df e4 3c 71 a6 93 bc 89 32 8a bc
       -0.057717882 0.027938435 -0.018023701 -0.0168698
000390 b8 6c c2 3c 42 76 79 bb 83 f4 85 bd 23 e1 8a ba
       0.023733482 -0.0038064872 -0.065407775 -0.001059566
0003a0 e2 4b 60 3c 12 9f 00 bd 36 1c 6a 3a bd c4 0c bd
       0.013689967 -0.0314017 0.00089305954 -0.03436731
0003b0 b4 3a 97 bd a0 ad 74 bd f4 28 5d bd e9 e4 18 3d
       -0.073842436 -0.059735894 -0.053994134 0.03732768
0003c0 05 ed fb 3c 9d c6 44 bd db db f2 3c 6f d2 15 bd
       0.030752668 -0.048040975 0.02964585 -0.03657764
0003d0 9c 29 ab bb ae b5 3a bc 5b 1a 32 3b d4 8e 7c 3c
       -0.005223466 -0.011395855 0.0027176354 0.015414912
0003e0 06 18 6e bd 9c 05 4c 3c 56 8a a1 bd e8 68 5e 3d
       -0.05812838 0.012452509 -0.078877136 0.054299265
0003f0 9d 5e 47 3d 37 24 a4 bd 4b 85 ed 3c 1c e6 39 3d
       0.048674215 -0.0801472 0.028994223 0.045385465

linear3.bias f4 [9]
000000 94 cb 90 bc 9c 76 60 3d 04 a9 57 3c 0f d3 1c 3d
       -0.017675199 0.054800615 0.013162855 0.03828722
000010 77 7e 1f bd d5 84 19 bc c9 97 63 bd ea f7 0c 3d
       -0.038938966 -0.0093700485 -0.055564675 0.034416117
000020 12 ed 75 3c
       0.015010135
