experiments/dqn_cartpole/run-1/model.pt (torch, 71924 bytes, 6 tensors)

layer1.weight f4 [128, 4]
00000000: b42d 1b3e 50be 8e3e 8711 be3e d319 b9bc
00000010: 69ed 0abf adbb 8f3e b148 15bd 5a24 883e
00000020: d91f 9bbe 5bdf 1b3f 19a2 0e3f 9dcf 05bf
00000030: 563e f03b bec4 c63e 9593 0e3f 340b 9e3e
00000040: 753b 28bf 7cd4 edbe 809d dabc e545 c6bc
00000050: 1f62 753f 8859 7fbe 367f 2cbf 8279 19bf
00000060: 78c2 c93e 8848 2ebe 9940 b0be e829 073e
00000070: 9cc9 913e 2e23 843d fc3f 17bf 6085 dabe
00000080: 2927 8fbd 236e c53e 222c 7f3e f9c8 833e
00000090: db71 a33d 5c85 713e 7877 88bf 233d 5cbe
000000a0: ea75 bdbd 554b 02be 1a08 6cbe d8b3 a73e
000000b0: dd54 073e 772f b23e 7b9b a23e ce74 f03e
000000c0: 4ff7 473c e2fb a73e 1dda 023f 541c a83e
000000d0: 6712 d9be 0cf9 c53e 012d 143f d30d 143d
000000e0: 346c ac3d 46e6 ec3e 2022 aa3e 7bab af3d
000000f0: b216 9a3e c365 4fbe f637 ddbd da2d 48be
00000100: 6bb5 873f 70cd e83e 3aba 303d 071f 653e
00000110: 3e55 9d3f b923 ba3e 4efd 49be 189a babd
00000120: 4c60 c33d 152a 0cbf c3d4 b8be c869 cebe
00000130: 5562 783f b7eb ddbc 6598 f1be ac17 1bbf
00000140: 7d2c 17bf 1344 d1be 06ba 58bf ea08 85be
00000150: 6b01 3dbf 3cd4 29bf 5a63 9cbe 80fe 9a3e
00000160: a2d6 cd3c 4a99 913e 072c f93e 541f bdbe
00000170: af4b 1abf cc3f e8be 8eab 58bf bad8 98be
00000180: 4c38 7d3e 164e 3e3e 542d 103e 025e f0be
00000190: 8e5b 393d a4ff 4f3e 29a1 083f 5e5a e6be
000001a0: af0a 82be fc26 b03e d6d7 163f d467 b6be
000001b0: 9bab ae3d 3678 84be 1252 bb3e 328f 75be
000001c0: aeaa 9b3f d477 6dbe 4e69 30be 4ace 7fbe
000001d0: 12e6 9e3f a3a0 a73d 37e2 6ebf 252a e0be
000001e0: ce70 08bf 27be c6be 550a 15bd b417 c13e
000001f0: a4e1 613e c01b 70be 9c77 50bc b972 bcbc
00000200: 3a0b 953f 44c1 8dbd 975e 82bf 42f9 eabe
00000210: 7cce 663e 574b c4be ab63 0dbf 5512 843e
00000220: d4e8 0dbe 99f9 3d3e 3ab6 9d3d 7c68 383e
00000230: ae42 983f c3e9 af3e 5320 22bf 07cb 8bbe
00000240: 4f59 c33e d01b bd3d a9cf 94be bb5a 973d
00000250: a10c dc3d f726 0a3f c30c 683f a283 be3e
00000260: 437f b1be 4d5e e2be d15f e5be 2288 c4be
00000270: 538e 543e 922b 5fbd b497 823f 9b63 593e
00000280: b93f 10bf 053d 19bf 2a9b 2fbf ff5d c6be
00000290: 759c 8c3e e86a 323d 8a65 f8be b34c 8e3e
000002a0: d7a1 dbbe b66c 1ebf 2843 34be 142d 1a3e
000002b0: 6ff7 f8be f03a abbd b4ce c2be 714a 663e
000002c0: b7c2 07bf a8ac 77be 0fc9 cb3e bfe1 5abe
000002d0: e5f1 04be ae14 c43e 9859 ee3e 1613 cd3d
000002e0: 69f9 f3bc 2949 f33d 4cc4 333f e6b3 0a3f
000002f0: 7edd 293e fcc1 0e3e fdf2 4ebe 94c3 0e3e
00000300: d202 d03e 86d3 02be 879f cf3d c60e 70be
00000310: 70f4 723d 0260 863e 0b1e e0be 52cd 1e3e
00000320: 3341 9fbe 4c71 df3c b183 983e 1289 843d
00000330: 28da 3fbf 4aaa 20bf 7570 72be 6efe b6be
00000340: 525f 9b3f b5f9 043f 117c 2c3e c31a 0c3e
00000350: 9a73 d6be d0e7 c43e 8867 063e 0434 a03e
00000360: 2d09 0d3e 3ea7 2abe 6bf2 fd3e 7518 d3bc
00000370: 1a02 64bd 9298 123f 68d5 a4be 411a c1be
00000380: 9152 ccbd c523 483f 3490 da3e 4907 163f
00000390: fd8d c13e eb5b 013f 553b 863f dc08 e33e
000003a0: 59ee acbe 0e3f e1be 96c1 93bf 9540 b1be
000003b0: 3f2d d03e 96d8 b5be e1a6 c7bd e02a b1be
000003c0: 7ce0 a93e c13b 4cbe dfef 1f3e 8fe4 9b3e
000003d0: a283 62be 0bf8 db3e 3777 86bd 8c69 723e
000003e0: f49c 8abd 9080 793e d6fd f53d 13f8 df3c
000003f0: 5792 96bd 05db dbbd 6000 0dbf d40b 303c
0.15154153 0.27879572 0.37122747 -0.022595322 -0.5426851 0.28072873 -0.036446277 0.26590234
-0.30297735 0.6088769 0.5571609 -0.5226992 0.00733165 0.38821977 0.5569394 0.30867922
-0.65715724 -0.46451175 -0.02668643 -0.02420325 0.95852846 -0.24936497 -0.6738161 -0.5995103
0.3940618 -0.17019856 -0.34424284 0.1319958 0.28474128 0.064520225 -0.5908201 -0.42679882
-0.06989891 0.3856059 0.24919179 0.25739267 0.079807006 0.23586029 -1.0661459 -0.21507697
-0.09251006 -0.1272405 -0.23049966 0.32754397 0.13215967 0.34801838 0.31759247 0.46964115
0.012204959 0.3280936 0.51114064 0.32834113 -0.42396852 0.3866657 0.5788117 0.036145996
0.084190756 0.46269435 0.3322916 0.08577629 0.3009544 -0.20253663 -0.10801689 -0.19548741
1.0602239 0.45469236 0.04314635 0.22375117 1.2291639 0.3635538 -0.19725534 -0.09111422
0.095398515 -0.5475171 -0.36099824 -0.4031508 0.9702504 -0.027089937 -0.4718658 -0.60582995
-0.5905226 -0.4087225 -0.8465885 -0.25983363 -0.7383029 -0.6633947 -0.3054455 0.30272293
0.025126759 0.28437263 0.48666403 -0.36937964 -0.60271734 -0.45361173 -0.8463677 -0.2985285
0.24728507 0.18584475 0.14079791 -0.46946722 0.04525333 0.20312363 0.5337091 -0.4499082
-0.25398776 0.34404743 0.5892309 -0.3562609 0.08528825 -0.25872964 0.36586052 -0.23980406
1.2161462 -0.23190242 -0.1722767 -0.24981037 1.2413962 0.08184936 -0.93313926 -0.43782154
-0.53297126 -0.3881695 -0.036386807 0.37713397 0.22058731 -0.23448086 -0.01272383 -0.023003923
1.1644051 -0.06921628 -1.0185117 -0.45893294 0.22539705 -0.3833873 -0.55230206 0.25795236
-0.13858348 0.18552245 0.077007726 0.18008608 1.1895349 0.34358034 -0.6333057 -0.27303335
0.38154075 0.092338204 -0.29064682 0.07390352 0.10744596 0.53965706 0.9064447 0.37209803
-0.34667405 -0.4421257 -0.44799665 -0.3838511 0.20757417 -0.05448491 1.0202546 0.21229403
-0.56347233 -0.59858733 -0.68596137 -0.38743588 0.27463117 0.043558985 -0.48514968 0.27792892
-0.42896912 -0.6188463 -0.17603743 0.15056258 -0.48626277 -0.08360851 -0.38048327 0.22489335
-0.53031486 -0.24186957 0.39801833 -0.21375178 -0.129829 0.38297027 0.4655273 0.10013406
-0.029782014 0.118791886 0.702214 0.54180753 0.16588399 0.13941187 -0.2020988 0.13941795
0.40627152 -0.12776002 0.10137849 -0.23443136 0.059315145 0.26245123 -0.4377292 0.15508011
-0.3110443 0.027275704 0.29787973 0.064714566 -0.74942255 -0.6275984 -0.23675711 -0.3574099
1.2138464 0.5194352 0.16844203 0.13682084 -0.41885072 0.3845811 0.13125432 0.31289685
0.13773032 -0.1666536 0.49599013 -0.025768498 -0.055666067 0.57264054 -0.32194066 -0.37715343
-0.09976686 0.7817958 0.42688143 0.58604866 0.3780364 0.5053088 1.0486857 0.44342697
-0.33775595 -0.4399342 -1.1543453 -0.34619585 0.4065952 -0.35516804 -0.097486265 -0.34603024
0.3317908 -0.1994467 0.15618847 0.30447814 -0.22120526 0.4296268 -0.06565707 0.23673075
-0.06768218 0.24365449 0.12011306 0.02733997 -0.07352131 -0.10735134 -0.550787 0.010745008

layer1.bias f4 [128]
00000000: d373 0a3f 672b 273f 94d3 323e d2b2 f73e
00000010: ff26 d4bd 574e 87be 94d9 803e e6f0 acbe
00000020: 40af d63e 5c92 93be 9599 463e fc99 5abd
00000030: be1e 313f 1beb dc3e b52d 163f 4409 b53e
00000040: 8e11 0a3e 203b 7f3e de5e bc3e 1f14 8ebe
00000050: 6f57 ddbc 3e3d 8ebc 5659 473e 8027 08bd
00000060: 8d09 0e3f e59a a13e 45a7 a0bc 8acd 2c3f
00000070: bdd8 253e fb84 a9bd 7a0a dcbe 91cf b9bd
00000080: e60c 34be 32b8 cc3e e3ce c53e 3cbb f03d
00000090: cd7a a23e db25 c83c 38e8 db3e d8c7 683c
000000a0: 3e49 d6bc a9cb 973e dc33 83be ef5d 9c3e
000000b0: 5aab d23e d69a 143f e521 9cbe ca43 363f
000000c0: 453f fd3e a1d0 9a3e 5777 173f ea1e 59bd
000000d0: 06e1 733e 060b 353f 1bb0 243f 90d3 c83e
000000e0: 28bd 773c 4b0b 4b3b 67e0 f2bc 9ee4 f93e
000000f0: 356f 353f b1f3 963e 4e98 003f 9f77 0a3f
00000100: 51cb 493e 4498 cdbd 985d 233e 44c2 033f
00000110: ffb0 45bd 521a 80bd f6ab 3cbd c8a2 c13e
00000120: 9dd0 5fbe 8303 b93e c3f1 f83c 4a1a ea3e
00000130: 2e6d ae3e afc5 003f e8b1 efbe 3e47 be3c
00000140: fb86 dabe 6ec4 ac3e 3a02 78bd b9b2 7a3e
00000150: efc3 f33e b2e1 98be 672c 853e 7320 74be
00000160: dddf 0a3f 7ab2 f53e 526e c33e fec6 303e
00000170: 717d f8bd b620 333d e3f5 b53e 1fd2 00bf
00000180: 7f82 7c3e 528b 303f b0d7 963e b4a1 da3b
00000190: 7a7e b13e 13bc ab3e 9a2b df3e bc68 ae3e
000001a0: 43bf dfbe 103c ebbe e4ae c5bc a1c9 ae3e
000001b0: 4fdd 7bbd ea28 773e 6eeb adbe 728b 73be
000001c0: b36c 4abe e5fa 363d 275d 42bd daae 2e3e
000001d0: 7f9d fd3e 3d67 273f af10 ce3e 037a b33e
000001e0: db36 c4be 4950 84bd 15da 833e 632d b3bd
000001f0: 415c 8fbe 5aa5 b8bd 2cbc b73a 1c90 e1bc
0.54082984 0.653006 0.17463523 0.48378617 -0.103590004 -0.26426956 0.25166 -0.3377754
0.4193058 -0.288226 0.19394524 -0.053369507 0.69187534 0.4314812 0.58663493 0.35358632
0.13483259 0.24924898 0.36791128 -0.27749726 -0.02701923 -0.017363187 0.19467673 -0.033240795
0.55483323 0.31563488 -0.01961101 0.6750113 0.1619596 -0.08277317 -0.42976743 -0.09072793
-0.17583045 0.3998428 0.38634405 0.11754462 0.31734315 0.024432113 0.42950606 0.014207803
-0.026157971 0.29647568 -0.25625503 0.30540416 0.41146356 0.5804876 -0.3049461 0.7119719
0.49462333 0.30237296 0.59166473 -0.053007998 0.23816308 0.70719945 0.64331216 0.3922391
0.015120782 0.0030982073 -0.029648019 0.48807234 0.70872813 0.29482797 0.502324 0.5408878
0.19706465 -0.10038808 0.15953672 0.514683 -0.0482645 -0.0625502 -0.046062432 0.37819505
-0.21856923 0.36135492 0.030388718 0.45723182 0.34067672 0.5030164 -0.4681542 0.02322733
-0.42681107 0.33743614 -0.060549 0.2448224 0.47610423 -0.29859692 0.2601044 -0.23840503
0.5424784 0.4798773 0.38170105 0.1726341 -0.12133301 0.043732367 0.3553916 -0.5032062
0.24659155 0.68962586 0.29461432 0.0066721085 0.34666806 0.33541927 0.43587953 0.3406428
-0.4370061 -0.45944262 -0.024131246 0.34138206 -0.061490353 0.24136701 -0.3396868 -0.23783663
-0.19768028 0.044672865 -0.04745212 0.17058888 0.49534222 0.65391904 0.40247104 0.35054025
-0.383231 -0.06460626 0.2575232 -0.08748891 -0.28000072 -0.09015913 0.0014017872 -0.027534537

layer2.weight f4 [128, 128]
00000000: a472 913d d491 aabd 489a c23c e584 7ebd
00000010: d232 093d 6e50 333b f88b 963d 4c80 a2bd
00000020: 1f15 04bd f18e e1bc e2e7 4cbd 9a0d 4fbc
00000030: 34e4 43bd 404c e1bc a666 8ebd 949b 83bd
00000040: b863 5c3d 7b9f 8bbd 5729 aa3c 4472 8e3c
00000050: 0588 2fbd 04aa a3bd e5b7 6d3d d43c 05bc
00000060: 8f42 713c 97de 913d 40f2 8cbd b0eb 87bd
00000070: 4dc4 4abc fcde 063d 36ba 203d e252 fdbc
00000080: bbe8 96bd c0fd 28bd b478 46bd 6804 5a3d
00000090: 7d95 eabc 17aa 853d f1c9 95bd 7048 e93c
000000a0: 4e98 333d 2e02 aabc b86b 393d 7a68 073d
000000b0: 766f 6a3d 927e 0f3d b3a6 9f3d 3c82 973b
000000c0: 12be 92bd 7ab1 153c c886 6f3d 0098 97bd
000000d0: 96d6 693d 01cc 55bc 3766 403d 3893 8dbd
000000e0: 7e5d 67bd db81 fa3c d79a bf3c 6da8 c93c
000000f0: 9a1b dabc 0980 58bd 90aa 943d bf1f 91bd
00000100: fabc ecbc 9d75 f13c 83c8 87bd b02a 57bc
00000110: 5823 583d 2ef2 bbbc fce4 9abd ae1c 12bd
00000120: 7ea9 823d 9674 3ebd 3307 6bbd 049b 903d
00000130: b3db ef3c fde9 803b 1e3a 0a3d 0c7a 7dbc
00000140: c43c 9b3d 72c6 823d 9c6c 4a3b 69b2 ebbb
00000150: a9ac 313d 5ec2 8c3d 092c 853c eac1 8e3c
00000160: bb62 0abc f0c9 97bc 0e2a 003d 0940 bf3c
00000170: 5d00 8bbc 0434 263d abde 9abc befe 48bd
00000180: 25d2 d8bb 3b21 9fbd 25e3 91bd 77ef 4d3c
00000190: c75c 2c3a 243b 873d 0f2f 953d 6fbc 1abd
000001a0: 3152 203d 1861 00bd b83b 62bd 00e5 96bd
000001b0: 3294 cdbc fcb8 b03c 8e28 0bbd 55f6 b93c
000001c0: fa5c 2d3d 1436 a1bd efcb be3b 212b a2bd
000001d0: 6113 76bb 05fc 61bb c079 a7bd 3589 94bd
000001e0: bfed 15bd 0ce9 99bd 4c13 9e3d fd6c 663d
000001f0: 759c 9d3d 6d69 9abd c285 f939 5d0a 043d
00000200: 62d4 d03c 2228 1c3d 85a1 a6bc 746e a5bd
00000210: 9486 18bd a43e 833d 8b64 9e3d c797 a8bd
00000220: e9ce fa3b 6435 d43c a2a2 ffbc d5d8 3cbd
00000230: 9d34 99bc a30e ec3b 1f8b 12bd 0037 ccbc
00000240: e3df 953a b7a7 453d a04a 1ebd 2606 dc3c
00000250: c83f 24bd c99e 3abd 43bf 96bd 9bca 8fbd
00000260: 86dc 643c 0e7b 65bd 3631 983c 73ff 3a3c
00000270: ef1c 21bd 5aee 473d a25a 263d f300 9ebb
00000280: ff80 a5bd 0b8c 2c3d 081f 6dbd dac2 8f3c
00000290: a47e 8d3d c390 34bd ca08 9abd d79d 9bbd
000002a0: 57d0 df3c 2c02 f0bc 34ae 8e3d ac5f f53c
000002b0: 507d 953c edd7 1c3d 7d17 273d 3a40 803d
000002c0: 6476 013c 7f10 85bd b692 99bd f8c7 34bd
000002d0: 5945 923c c200 56bd d624 fc3b cae0 8dbd
000002e0: 1a98 70bc ec99 eeba 2100 1a3d 4a24 e33c
000002f0: c5eb 17bd eaf7 5dbd 5af3 78bd 5b9e 6c3d
00000300: 321c 883d dd44 d9bc 2cc6 f13c 4dd1 fcbc
00000310: bb8a 99ba 1e49 e03b 2d54 abbb 7a98 dd3c
00000320: 5354 723c 1f01 8dbd cfde 5b3d 010e 08bd
00000330: 94fe 213d 88ed 5ebd 6e83 253d 3ea8 39bd
00000340: e3a3 a93d fa7a d4bc 2ad1 563d 8bec 9dbb
00000350: d411 ee3b b583 513b 9e1b 7fbd cb38 a1bd
00000360: e2c1 3cbd 2908 24bc 3bf8 1d3d 8bcc 8bbd
00000370: 2620 613c d8d3 953d 479e 05bc 73d2 683d
00000380: c984 99bd af1f 95bc 667f 6cbc 4c04 023c
00000390: 21d5 8ebd 32e2 67bd bf95 6abc 5460 3a3d
000003a0: d236 95bd cf51 8d3d 7e6b 593b 855c a5bd
000003b0: dc20 8fbd 4de7 30bd 8a0d 483d b5e7 033d
000003c0: a502 f33c a7bc 893d f527 d3bc 535d 8cbd
000003d0: e475 1ebd 0b3f 983d 5b8a 4b3c ac98 91bd
000003e0: 2a28 11bd 1e87 3ebd ec09 38bd 9722 a13d
000003f0: 96c6 3d3d ead6 983d 88f6 813c e83f 353c
0.07101944 -0.08328596 0.023755208 -0.062138457 0.03349573 0.0027361172 0.07350916 -0.07934627
-0.032246705 -0.02753398 -0.05002583 -0.01263752 -0.047825053 -0.02750218 -0.069531724 -0.064261585
0.053806037 -0.06817528 0.020771665 0.01738847 -0.042854328 -0.07991412 0.058036704 -0.008132178
0.014725341 0.07122534 -0.06882143 -0.06636751 -0.012375903 0.0329275 0.039240085 -0.03092331
-0.073686086 -0.04125762 -0.048454955 0.05322686 -0.028635735 0.06526583 -0.07313908 0.028476924
0.04384642 -0.020752992 0.045268744 0.03305862 0.057235204 0.035032816 0.07795467 0.0046236794
-0.07165159 0.009136552 0.058478147 -0.074020386 0.05708941 -0.013049127 0.04697248 -0.069128454
-0.056485645 0.030579498 0.023389263 0.024616444 -0.02662449 -0.05285648 0.07259095 -0.07086133
-0.028898705 0.029475028 -0.066300415 -0.013132736 0.05276808 -0.022942629 -0.075632066 -0.035671882
0.06379984 -0.046497904 -0.057379913 0.07060817 0.029279565 0.0039341436 0.03374683 -0.015470993
0.075799495 0.06385507 0.003088749 -0.007192899 0.043377552 0.0687301 0.01625635 0.01742645
-0.008446391 -0.018528908 0.031290106 0.023345964 -0.016967947 0.04057695 -0.018905004 -0.049071066
-0.006616848 -0.0777001 -0.071234025 0.0125693 0.0006575104 0.06603077 0.07284366 -0.03777736
0.039140884 -0.031342596 -0.055232733 -0.07367897 -0.02509508 0.021572582 -0.033974223 0.022700468
0.042324997 -0.07871643 0.0058226506 -0.079183824 -0.0037548172 -0.003448249 -0.08177519 -0.07252733
-0.036603685 -0.07515153 0.07718524 0.056256283 0.076958574 -0.075396396 0.00047592638 0.032236446
0.025491897 0.03812421 -0.02034069 -0.08077708 -0.03723772 0.06408432 0.07734021 -0.08232074
0.00765406 0.025904365 -0.031205479 -0.046105225 -0.018701846 0.0072038933 -0.035777207 -0.02492857
0.0011434521 0.04825565 -0.038645387 0.0268584 -0.04009989 -0.045561586 -0.07360699 -0.07021066
0.0139685925 -0.056025557 0.018578153 0.011413443 -0.039334234 0.048811294 0.040613778 -0.0048218905
-0.08081245 0.042125743 -0.05789092 0.017548967 0.069089204 -0.044083368 -0.07521208 -0.07598465
0.027321024 -0.02929791 0.0696682 0.029952846 0.01824823 0.03829186 0.040793885 0.0626225
0.007901762 -0.06497287 -0.07498686 -0.044136018 0.017855333 -0.052246816 0.007694821 -0.06927641
-0.014684701 -0.0018203831 0.03759778 0.027727265 -0.03709008 -0.054191507 -0.060778953 0.057768207
0.06646003 -0.026522094 0.029513441 -0.030861521 -0.0011714319 0.0068446537 -0.0052285404 0.027050246
0.014790612 -0.068849795 0.053679284 -0.03321648 0.039549425 -0.054425746 0.040408544 -0.045326464
0.08283212 -0.025937546 0.05244557 -0.004819458 0.007265309 0.0031969373 -0.062282197 -0.078721605
-0.04608334 -0.010011711 0.03856681 -0.06826123 0.013740575 0.073157966 -0.008155412 0.056841325
-0.0749603 -0.018203584 -0.014434671 0.007935595 -0.06974245 -0.0566122 -0.014317929 0.045502022
-0.07285847 0.069003694 0.0033175643 -0.08074287 -0.06988689 -0.043189336 0.048841037 0.032203395
0.029664347 0.06725436 -0.025775889 -0.06853738 -0.038686648 0.074338995 0.012423123 -0.07109198
-0.035438694 -0.046515577 -0.044931337 0.078679256 0.046331964 0.074628666 0.015864626 0.0110626

layer2.bias f4 [128]
00000000: eb81 803d 58d5 723d 4d76 f13a 5d35 d13d
00000010: 0413 5d3c 30c2 373e 7569 f53c f5a6 7a3d
00000020: e57b 503e 82e9 ac3e cff4 7d3d 6f0b 0b3e
00000030: bf25 a03d 77d9 d0bb 1091 003d e32e f2bb
00000040: ff4a 1abe c79c 14bc d14a f43d 6f6a f83d
00000050: a17b 493e 3378 5739 8cab 9a3d ef5c 49bd
00000060: 5043 5a3e 31cb 94bd 7f24 3b3e 695c afba
00000070: fd80 03bd bf19 b93c 03d7 f63d 3e6c 463e
00000080: 21ed 36bd 4169 c53c 0b99 a03d 6329 de3a
00000090: 9972 893d 1388 2e3e 0e00 963d 6400 883e
000000a0: 2e6b bc3d 576a c43e 9348 a2bd 8d31 533d
000000b0: 4fc6 033e 627b b53d 7566 993e 78a3 42bd
000000c0: f804 443d 19f1 5a3e 8ba3 d03e 21cf 90bd
000000d0: cdd9 c2bc fa0c e63c 9f31 a4bc 9711 16bc
000000e0: 6cf6 983d 63a2 3ebd b4ee 3c3e 88df 8ebd
000000f0: 3893 f33d 560b 94bd c8ad 9bbc 976d 403b
00000100: e2f2 b6bb 8aaf b0bc e34b f83c 6fa8 eb3d
00000110: b856 ba3e 6e2a 223d 929f d03d b33b 36bd
00000120: f2e1 4d3e c141 be3a 1a13 7d3e 5879 613e
00000130: f5c6 ae3b d53b 3c3e e6e7 983e 100c 24bd
00000140: 6141 0b3b ea86 cf3d 6010 5e3d e2e6 633a
00000150: aae8 783d fc4d bf3d bd58 7a3d dd61 073e
00000160: 97e0 98bd 8cad 8c3d b054 81bd 1862 8e3e
00000170: ad1f d3bc 314a 813a 71be 263d e029 4a3e
00000180: 1a21 e03d e805 773e 972f 78bd d01b 9ebd
00000190: 3cfd f13d 9e7c 333e e3a3 7d3e 018e 153e
000001a0: 4e55 a03e 72ab 3f3e 1b65 4abb 86cd a4bd
000001b0: c24a 9d3e b9c4 4e3d c3fc 8d3d f7cc 143d
000001c0: e56e 813e 1051 193e b234 303e d97a 02be
000001d0: 77c8 5d3d 08cc 4c3e 74e8 a4bd 82cf 68bc
000001e0: 8f11 303e 04c1 fd3c 958d 1b3d 2d17 f2bd
000001f0: 8502 083e cf05 fb3c e945 02be 0f20 f83d
0.0627478 0.05928549 0.0018422097 0.10215256 0.013493303 0.1794517 0.029957512 0.06119438
0.20359762 0.33771902 0.062001046 0.1357858 0.078196995 -0.00637358 0.031388342 -0.0073908432
-0.15067671 -0.009070582 0.119283326 0.121296756 0.19676067 0.00020548776 0.07552251 -0.049160894
0.2131474 -0.07265318 0.18275641 -0.0013378981 -0.032105435 0.022595285 0.12052729 0.19377229
-0.044659737 0.02409804 0.07841691 0.001694959 0.06711311 0.17044096 0.07324229 0.26562798
0.092001304 0.3836238 -0.07923999 0.051560927 0.12868617 0.08861424 0.2996098 -0.047519177
0.0478563 0.21381034 0.40749773 -0.07070757 -0.023785496 0.02808236 -0.020043192 -0.009159467
0.07468876 -0.046541583 0.18450433 -0.06976229 0.11893314 -0.07228725 -0.019003764 0.0029362196
-0.005583153 -0.021568079 0.030309623 0.115067355 0.36394286 0.039591245 0.101866856 -0.044490527
0.20105723 0.0014515446 0.24714318 0.22018945 0.005333776 0.18382199 0.29864424 -0.040050566
0.0021248686 0.10133155 0.054214835 0.0008693767 0.06076876 0.09341046 0.061119784 0.13220926
-0.07464712 0.06869039 -0.06314981 0.27809215 -0.02577194 0.000986403 0.040708963 0.19742537
0.109438136 0.24123347 -0.06059226 -0.077201486 0.11815879 0.17528006 0.24769549 0.14604951
0.31315082 0.18717745 -0.0030883017 -0.08047013 0.30721098 0.050480578 0.06932976 0.036328282
0.25279918 0.14972329 0.17207602 -0.12742175 0.054146256 0.19999707 -0.080521494 -0.01420963
0.17194198 0.030975826 0.03797682 -0.11820827 0.13282211 0.030642418 -0.12721981 0.1211549

layer3.weight f4 [2, 128]
00000000: b075 203d acc3 f8bc 2cd8 7fbe 4f47 03bf
00000010: 8466 6fbe 06fa c13e daa6 1a3d 08ce f3bc
00000020: 4184 b93e e488 c23e 564b ba3e 52a7 7bbd
00000030: f603 273f 2306 d43e 24f8 1fbd 6638 38be
00000040: 50d0 6dbe 52d4 aa3d 930c 973e 1832 343f
00000050: 6774 db3e e38f 983d eaee ad3e c999 8abd
00000060: c79f ac3e d748 87bc ec89 fa3e 516d 22bd
00000070: 2b5f 87bd 1ec3 5bbe a99c e73e 34df 9e3e
00000080: 5cc3 d3be 25d6 47bd b4e3 58bb 4f9a 89bd
00000090: e58c 83bd 1e4b 993e 2338 8cbd 30eb dd3e
000000a0: a9df 0e3f a830 de3e 4165 233d d7f4 a13e
000000b0: 7a5a 983e 10e7 b83e 56d4 b53e 9f20 483d
000000c0: 944d abbd d31a 913e 55b6 fe3e 46b5 6fbd
000000d0: c008 bf3d f5c1 b93e a146 05bf b098 54be
000000e0: c281 403f 6bba d5be 54c8 d73e bb9e 8b3d
000000f0: 32ba b53e 669d 083b 0aea d6be c49e 35be
00000100: 9699 ebbe f8b0 90bd 194d 8dbe 1a48 063c
00000110: dc04 f23e 7791 943e ec37 c23e f0df fe3c
00000120: 2ee4 9a3e 1e9a 853e d23f af3e 2ec1 c93d
00000130: 622d 703c ee7f f03e a6b1 e43e 7cd5 5d3d
00000140: 198a 9f3e c52d ac3e 7f8d 803c a9fd a03c
00000150: 26fd d0be 1015 b33d ceac 5ebe ac27 e33e
00000160: 2046 cfbc 9287 fc3e f8de 10be 02dd d23e
00000170: 0e91 b4be 983d 9bbd 7add 613d da9f f43e
00000180: 0ecb 4cbe 6f61 de3e 3eca 943d c9de de3c
00000190: 9e30 e93e e77b c33e 36cd de3e 8019 c93e
000001a0: f398 d53e dd26 aa3e 4254 d73b 9aa6 263d
000001b0: a355 b03e d9e7 bdbe b582 30bc af2b 2c3e
000001c0: d215 c03e 07fa d6be 23ea dd3e ad54 c8be
000001d0: c9a2 063f 6d74 e83e 435c 8fbe 44e5 96be
000001e0: 4f80 b33e ce58 84be c7b6 82bd f1d1 afbe
000001f0: a244 f53e 6ced 043f 8a97 0ebf bcab f03e
00000200: 2ff6 71bd 5619 4a3d 42ec 993e 61a5 21be
00000210: de07 cbbe 88fe c53e 7f31 f1bc bea2 c8bb
00000220: 8d12 d03e 53f6 cd3e 97e7 d63e 8f7e 91be
00000230: 1933 dd3e d300 123f 2f5a c5bb 122a a8be
00000240: f052 9fbe 9e15 9cbd 6b50 fa3e 3982 293f
00000250: b6dc d63e 168d 1cbd ee6f ee3e e624 21bd
00000260: 516c c43e 66e2 383d 5f01 c03e 1aa4 8ebc
00000270: 2f4f d7bc 5038 c5be 5fcb db3e 85d1 c83e
00000280: 1902 8cbe 2faa ebbc d255 9abd 4660 dbbc
00000290: 1ded bcbc aeda c93e 6add 93bd 30a6 d43e
000002a0: 670b b93e 03a4 c83e f695 a2bd 4650 c43e
000002b0: 26ff c03e 3067 dd3e 9868 b23e 7c8a 463c
000002c0: e57e c3be 36c2 c53e cd7f cf3e 34f4 cdbe
000002d0: ce4e 6dbd 2e20 e53e 6b05 18bd 933e d6be
000002e0: 793a ae3e 4baf 35be dbef f43e f81a 72bc
000002f0: a44e c4bc f021 2cbd ae0f b4be ce9a ddbe
00000300: 4c51 9fbe 993a 94bd 67c2 abbe 1109 fe3e
00000310: d060 d63e 3605 eabe a754 d73e 5c65 8fbc
00000320: d9b0 bf3e 66bb 8e3e d3bc c83e 6172 86be
00000330: fc54 94bd 6710 df3e 3425 cb3e 2c47 8b3d
00000340: 6ebc a13e 129d d43e b12a a1bd ab8f 97bd
00000350: fe28 68be eb6a bb3e d95a efbe 8031 de3e
00000360: 4cac 8abd d8dd aa3e 083a 18bd 6994 d43e
00000370: 8e25 e4be ee5d 70bd c05b 0ebd dcfd e63e
00000380: 21e0 be3e fde3 cd3e 59a2 a63d 8433 a3bb
00000390: 17ef db3e 274e c63e d624 bf3e 7fb6 d73e
000003a0: 1126 dc3e ce6e b63e 2821 023c 6162 cbbc
000003b0: 6380 d23e a885 dbbd dbe9 bbbe 0e97 febe
000003c0: 4b9e c33e 1dea 03bd 69c6 ca3e 55d2 0f3d
000003d0: f422 113f e98f ce3e 9093 91be 6000 a43d
000003e0: 203d ca3e 78a3 e9be e7f4 95bd 829d 87be
000003f0: b5d3 db3e c6b0 e23e 8782 0abe 7ac4 083f
0.039174736 -0.030366741 -0.24984807 -0.51280683 -0.2337895 0.37886065 0.03775678 -0.02976133
0.36233714 0.37995064 0.36385602 -0.061438866 0.6524042 0.41410932 -0.039055005 -0.17990264
-0.23223996 0.08341278 0.2950178 0.70388937 0.42862245 0.07449319 0.3397134 -0.067676134
0.3371565 -0.016514225 0.4893335 -0.039655033 -0.06609949 -0.2146115 0.4523671 0.31029665
-0.41359985 -0.04878821 -0.0033094706 -0.06718885 -0.06423358 0.29940122 -0.06846645 0.43343496
0.5581003 0.43396497 0.039891485 0.3163211 0.29756528 0.36113787 0.35513562 0.048859235
-0.08364406 0.28340778 0.49748483 -0.058522485 0.09327841 0.3628079 -0.52060896 -0.2076137
0.75197995 -0.41743788 0.42145026 0.06817385 0.35493618 0.002084577 -0.41975433 -0.17736346
-0.46015614 -0.07065004 -0.27597883 0.008195901 0.47269332 0.2901723 0.3793329 0.031112641
0.30252212 0.26094145 0.3422838 0.09851299 0.014659258 0.46972603 0.44666785 0.054158673
0.31160048 0.3362867 0.01569247 0.019652205 -0.40818137 0.08744252 -0.21745607 0.44366205
-0.025301993 0.49322182 -0.14147556 0.4118424 -0.35266918 -0.075801075 0.055142857 0.47778207
-0.19999334 0.4343371 0.07265137 0.027205842 0.45544904 0.38180467 0.4351594 0.39277267
0.41718253 0.33232775 0.0065713236 0.040686227 0.34440336 -0.37090948 -0.0107733505 0.16813539
0.37516648 -0.4198763 0.43342695 -0.39127102 0.5259214 0.45401326 -0.28000078 -0.2947179
0.3505883 -0.25849003 -0.06382518 -0.3433986 0.47903925 0.5192478 -0.5569998 0.47006023
-0.05907267 0.04934057 0.30063063 -0.15785743 -0.3965444 0.38670754 -0.029442547 -0.006122916
0.40639153 0.40226993 0.41973564 -0.2841687 0.43203047 0.5703251 -0.0060227136 -0.32844597
-0.31117964 -0.07621311 0.4888948 0.6621433 0.41965264 -0.038220488 0.4656977 -0.03934183
0.3836389 0.045137785 0.37501046 -0.017412234 -0.026282875 -0.38519526 0.42928597 0.3922235
-0.2734535 -0.028767673 -0.075359 -0.026779305 -0.023062283 0.39424652 -0.07219966 0.4153304
0.36141512 0.3918763 -0.07938759 0.38342494 0.37694663 0.43242788 0.34845424 0.012117978
-0.3818275 0.38624734 0.40527192 -0.40225375 -0.057936482 0.44751114 -0.037114542 -0.41844615
0.34028986 -0.1774265 0.47839245 -0.014776938 -0.02396328 -0.042024553 -0.35168213 -0.4328217
-0.31116712 -0.07237739 -0.33546755 0.49616292 0.41870737 -0.457071 0.42056772 -0.017504387
0.37439612 0.2787735 0.3920656 -0.2625914 -0.07242772 0.43567201 0.3967682 0.06800684
0.31589073 0.41526085 -0.07869471 -0.07400449 -0.22671887 0.3660501 -0.46749 0.4339714
-0.06771144 0.33372378 -0.037164718 0.41519478 -0.44559902 -0.05868333 -0.03475547 0.45115554
0.37280372 0.40213004 0.08136434 -0.0049805064 0.4295585 0.387315 0.3733279 0.4213142
0.42997792 0.35631412 0.007942475 -0.024827184 0.41113576 -0.10718852 -0.36701855 -0.4972462
0.38206705 -0.03220569 0.396045 0.035112698 0.5669396 0.4034417 -0.28432894 0.08007884
0.3949976 -0.4563253 -0.07322102 -0.26487356 0.42934957 0.44275492 -0.13526355 0.534248

layer3.bias f4 [2]
00000000: 5df8 933e d877 683e
0.28900424 0.22701967
